TJC2025/models/simple_vae_conv_best.pt (torch, 423240 bytes, 17 tensors)

encoder.encoder.encoder.0.weight f4 [16, 1, 3, 3]
-0.0026528675 -0.24220164 0.0070702755 -0.23087935 0.007736124 -0.2563925 -0.19848795 -0.2946614
0.28740492 0.076097265 0.11981916 -0.12255813 0.18848728 0.08575475 0.13605468 -0.23105538
0.04351193 -0.21593396 0.059109777 -0.2953037 -0.06326439 -0.0349902 0.042676747 0.22366737
-0.036352582 0.13901608 -0.060177065 0.1808911 -0.2271352 -0.17027529 0.18720978 -0.066048
0.12677807 -0.09998859 -0.2155654 0.0641723 0.29812115 0.06552949 0.31611285 0.07171435
0.30120948 -0.21693279 0.24886344 0.09431178 -0.26337588 0.16444558 -0.0797015 -0.27982378
0.22933325 0.056962088 -0.08030201 0.16641437 -0.27686167 -0.21221468 0.34317386 -0.016904188
0.020382535 0.16781043 -0.2557382 -0.0006533679 0.304606 0.21450447 0.08644161 0.18675734
0.3235064 0.16494015 -0.020058291 -0.1286056 0.18931963 0.19672367 0.12696993 0.3010497
-0.12296342 -0.29276177 -0.17042416 -0.27934805 -0.135177 0.12876914 -0.005317675 0.14653252
-0.28864783 -0.17313927 0.16225912 0.042184852 -0.118890755 0.08926846 -0.21626851 0.14949721
-0.16711879 -0.15620075 -0.1741677 -0.03380829 -0.26469037 0.28866148 -0.14848265 0.26747164
-0.12681618 0.027779547 0.15052177 -0.18920533 0.01378328 0.23192732 0.032919183 0.26765126
-0.13348828 -0.31822908 -0.24016696 -0.08266338 -0.24469852 0.14709488 0.12910117 0.13116644
-0.13999656 -0.3239989 -0.25404346 -0.01884121 -0.18579175 -0.1493905 -0.06207528 0.30721194
0.20220977 -0.25568482 0.31029886 0.15111597 0.006965938 0.20628908 -0.2349345 -0.19244246
-0.24263522 0.21457602 0.31982744 -0.2751348 0.11910042 -0.26990736 -0.27097997 -0.28351104
0.19960769 -0.21091168 0.060589597 -0.27289617 0.09254563 -0.00036701365 -0.2716662 -0.17879191
00000000: bbdb 2dbb b503 78be c5ad e73b a36b 6cbe
00000010: 507f fd3b e145 83be 6d40 4bbe dcdd 96be
00000020: bd26 933e e2d8 9b3d bf63 f53d c2ff fabd
00000030: cf02 413e 30a0 af3d eb51 0b3e c899 6cbe
00000040: 9139 323d cb1d 5dbe 181d 723d 0c32 97be
00000050: c390 81bd e251 0fbd d0cd 2e3d 0f09 653e
00000060: 72e6 14bd 3b5a 0e3e 3a7c 76bd 843b 393e
00000070: 2196 68be a55c 2ebe ecb3 3f3e 2c44 87bd
00000080: 1cd2 013e d1c6 ccbd 2dbd 5cbe c46c 833d
00000090: 56a3 983e 5334 863d 8bd9 a13e f9de 923d
000000a0: 2138 9a3e a123 5ebe 0fd6 7e3e 8926 c13d
000000b0: 34d9 86be 6c64 283e 8a3a a3bd 1045 8fbe
000000c0: 56d6 6a3e 1451 693d 6175 a4bd 8768 2a3e
000000d0: d0c0 8dbe ce4e 59be 7cb4 af3e a77a 8abc
000000e0: 46f9 a63c 7fd6 2b3e 1ef0 82be c746 2bba
000000f0: 51f5 9b3e 0fa7 5b3e 4c08 b13d 513d 3f3e
00000100: a2a2 a53e 12e6 283e 4951 a4bc 30b1 03be
00000110: 01dd 413e ee71 493e 6804 023e 3023 9a3e
00000120: 3fd4 fbbd dfe4 95be ac83 2ebe b506 8fbe
00000130: d76b 0abe 0fdc 033e e43f aebb 9f0c 163e
00000140: a6c9 93be 6c4b 31be 4127 263e 06ca 2c3d
00000150: ff7c f3bd 62d2 b63d 7e75 5dbe cc15 193e
00000160: 3021 2bbe 17f3 1fbe 0459 32be 907a 0abd
00000170: 7f85 87be 70cb 933e d60b 18be 0bf2 883e
00000180: 1adc 01be ef91 e33c 6122 1a3e 0bbf 41be
00000190: 44d3 613c 5b7e 6d3e 44d6 063d 9609 893e
000001a0: 27b1 08be ecee a2be 54ee 75be 6b4b a9bd
000001b0: 4092 7abe 0aa0 163e 1933 043e 7f50 063e
000001c0: 425b 0fbe 2fe3 a5be fc11 82be e258 9abc
000001d0: 3140 3ebe d3f9 18be a642 7ebd e24a 9d3e
000001e0: 1410 4f3e 1fe9 82be 7edf 9e3e 25be 1a3e
000001f0: 8642 e43b 723d 533e ab92 70be a30f 45be
00000200: 5e75 78be d1b9 5b3e 6cc0 a33e 78de 8cbe
00000210: ecea f33d 4c31 8abe e3bd 8abe 5c28 91be
00000220: f565 4c3e 3bf9 57be cc2c 783d 0cb9 8bbe
00000230: 9088 bd3d bd6b c0b9 d517 8bbe 3a15 37be

encoder.encoder.encoder.0.bias f4 [16]
-0.21965344 -0.17232138 0.13626999 -0.119390026 0.23809113 -0.15659402 -0.26303166 -0.17043748
-0.20520517 0.09026716 -0.13195923 -0.17987753 -0.29885364 0.15201996 -0.33097792 0.1510772
00000000: d5ec 60be 0475 30be 5c8a 0b3e c282 f4bd
00000010: 29ce 733e 2f5a 20be 16ac 86be 2a87 2ebe
00000020: 4e21 52be fddd b83d 5220 07be d131 38be
00000030: 5803 99be 1fab 1b3e f075 a9be fbb3 1a3e

encoder.encoder.encoder.2.weight f4 [32, 16, 4, 4]
0.025347665 0.0020077748 0.041675426 0.05557822 -0.0007173581 0.021280026 -0.023022514 -0.015432353
-0.017306777 0.052908972 -0.039911367 0.025615692 -0.024526997 -0.02064256 0.057260077 -0.03593572
-0.006536469 0.038575113 -0.039056383 0.043923724 0.032896053 -0.04977361 -0.0057101063 -0.051820636
0.016155215 -0.00026588375 0.0054110186 0.039786093 0.04072605 0.05192008 -0.021820102 0.02791514
-0.041577145 -0.052191317 0.04232771 -0.031093277 -0.0023560035 0.052691624 0.04420532 0.0354535
-0.014106959 0.027046777 0.05055833 0.043652125 0.0103762 -0.057695054 0.013272425 -0.009587393
-0.061866682 -0.04931207 -0.0045877276 0.0060242796 0.024802126 -0.046568763 0.014777397 0.03432574
0.005493627 -0.024629446 0.013251575 0.015214983 -0.045465257 0.065303616 -0.01374389 -0.063591965
0.03982622 0.040706564 0.013392733 0.05055234 0.03708605 -0.057360094 0.004802613 -0.010327042
-0.052786987 -0.039383337 0.03232568 -0.0061535235 -0.030424895 0.034019023 0.01264643 -0.0432312
-0.011137386 0.049064048 -0.048891313 -0.020412978 -0.022427142 0.02699455 0.036217004 -0.008804515
-0.021704884 -0.03940082 0.021328777 -0.051825803 -0.050093587 0.0332161 -0.016986318 0.050584715
0.019498127 0.047062833 -0.06508498 -0.056208953 -0.047412235 -0.050617177 -0.060267575 -0.068459466
-0.0009147898 -0.027426707 0.028268907 -0.02647629 0.019291371 -0.053324547 -0.0028614423 -0.016994046
0.03060707 0.025350569 -0.06261303 0.01414713 -0.0022247578 0.032897618 0.008511493 0.03332259
-0.06971991 -0.011915919 -0.005754776 -0.05819691 -0.052845508 -0.032913238 -0.014320675 0.027750667
-0.043601274 0.021152258 -0.027457349 0.0007326409 0.026342632 -0.034206737 0.011585123 0.053501222
0.044512074 0.016305137 -0.0015722687 -0.029577514 -0.0527532 0.068286024 -0.0047016297 0.048324406
-0.039539784 0.054273847 -0.028268917 -0.012964992 -0.064761445 0.018314622 -0.06456921 0.043064497
0.058369394 -0.042115416 -0.049394894 0.03444762 -0.044939425 -0.07332661 -0.05751328 -0.013042392
-0.027440455 0.003968625 -0.041928224 0.0056487992 -0.002176565 -0.026556827 0.011025034 -0.07042753
0.043732442 -0.029006356 -0.004787412 -0.009070009 -0.02605017 -0.0066864663 -0.03947872 -0.035288863
-0.029875869 -0.06489725 -0.022709899 -0.05712762 -0.010598742 0.009527033 -0.040020753 0.059108857
-0.030458312 0.053155556 0.045556366 -0.05509493 -0.035781324 0.029961118 0.0121769365 -0.03327157
-0.021339161 0.021166531 -0.046460424 0.0283431 -0.046456054 0.008587169 -0.013597425 -0.027986202
-0.04538967 0.0090670185 -0.03373914 -0.0361435 -0.015696729 -0.04598586 0.016025208 -0.027103486
-0.03997727 -0.042915512 0.021927 0.0069837747 0.044310797 0.047055267 -0.019714223 0.0009944461
-0.052711956 -0.055767786 0.033264894 0.02701521 0.035312597 -0.06339778 0.046295576 0.015707545
0.05328015 -0.05049379 0.06574541 -0.035065047 0.007297236 0.044597827 0.053351723 0.082601614
-0.04313845 0.03749904 0.02445204 0.005937485 0.03641268 0.010282337 -0.017218966 0.028920047
-0.03502637 -0.004674024 0.0062404606 0.062083624 0.011949923 -0.01810369 -0.06783517 0.05673068
0.0071714837 0.046642587 -0.012999832 0.036952563 -0.0026761405 -0.05013948 0.035945296 -0.024006749
00000000: e8a5 cf3c df94 033b dab3 2a3d fda5 633d
00000010: 160d 3cba 7353 ae3c b699 bcbc fbd7 7cbc
00000020: f1c6 8dbc 14b7 583d 1a7a 23bd 00d8 d13c
00000030: d7ec c8bc 961a a9bc 8b89 6a3d 5531 13bd
00000040: e02f d6bb f000 1e3d 96f9 1fbd 5de9 333d
00000050: 03be 063d 6adf 4bbd d81b bbbb e041 54bd
00000060: f157 843c 5066 8bb9 ea4e b13b bef6 223d
00000070: 5cd0 263d 26aa 543d 12c0 b2bc 4bae e43c
00000080: cc4c 2abd 90c6 55bd d25f 2d3d 54b7 febc
00000090: 2e67 1abb 2cd3 573d a310 353d b037 113d
000000a0: e020 67bc 3491 dd3c 4016 4f3d 92cc 323d
000000b0: f000 2a3c a651 6cbd 9674 593c 7114 1dbc
000000c0: eb67 7dbd 74fb 49bd a654 96bb 5267 c53b
000000d0: d42d cb3c e3be 3ebd e51c 723c 2699 0c3d
000000e0: e203 b43b b1c3 c9bc 221d 593c 4448 793c
000000f0: c739 3abd e7bd 853d 0e2e 61bc 813c 82bd
00000100: d220 233d edbb 263d 326d 5b3c f80f 4f3d
00000110: 8be7 173d 6bf2 6abd 3d5f 9d3b c132 29bc
00000120: 2b37 58bd 6c50 21bd ef67 043d 7fa3 c9bb
00000130: a13d f9bc 8857 0b3d f932 4f3c 3313 31bd
00000140: 9579 36bc 62f7 483d 4242 48bd 1e39 a7bc
00000150: 20b9 b7bc ad23 dd3c 4858 143d d040 10bc
00000160: 71ce b1bc c162 21bd b0b9 ae3c 4b47 54bd
00000170: ef2e 4dbd 9b0d 083d e426 8bbc eb31 4f3d
00000180: 89ba 9f3c f5c4 403d 464b 85bd 5c3b 66bd
00000190: 5533 42bd f553 4fbd 22db 76bd 7a34 8cbd
000001a0: 81ce 6fba f9ad e0bc 3294 e73c cee4 d8bc
000001b0: f008 9e3c d76a 5abd 0987 3bbb 1937 8bbc
000001c0: aebb fa3c ffab cf3c 433b 80bd 5dc9 673c
000001d0: 3ecd 11bb a7bf 063d ca73 0b3c 457d 083d
000001e0: 50c9 8ebd fd3a 43bc 8f92 bcbb e25f 6ebd
000001f0: 8874 58bd 08d0 06bd 44a1 6abc 5e55 e33c
00000200: 4097 32bd 8047 ad3c 3cee e0bc b30e 403a
00000210: 81cc d73c 5d1c 0cbd 87cf 3d3c 1924 5b3d
00000220: 4b52 363d 5a92 853c 9514 ceba 8b4c f2bc
00000230: bd13 58bd 8bd9 8b3d 2110 9abb d0ef 453d
00000240: 78f4 21bd 414e 5e3d 3794 e7bc 1e6b 54bc
00000250: a6a1 84bd 8c08 963c dd3c 84bd 6664 303d
00000260: bf14 6f3d 3781 2cbd 4d52 4abd f318 0d3d
00000270: 6712 38bd 432c 96bd 0c93 6bbd c2af 55bc
00000280: ceca e0bc 3d0b 823b eebc 2bbd 9019 b93b
00000290: b3a4 0ebb b48d d9bc 58a2 343c 4f3c 90bd
000002a0: ca20 333d bd9e edbc b9df 9cbb 609a 14bc
000002b0: 2b67 d5bc 251a dbbb 70b4 21bd 0e8b 10bd
000002c0: 3dbe f4bc d9e8 84bd 1c0a babc a7fe 69bd
000002d0: 59a6 2dbc 4617 1c3c cdec 23bd 211c 723d
000002e0: b683 f9bc a4b9 593d 5099 3a3d 39ab 61bd
000002f0: 708f 12bd 0571 f53c c681 473c c547 08bd
00000300: 77cf aebc 6f65 ad3c 494d 3ebd ca2f e83c
00000310: b448 3ebd 33b1 0c3c bcc7 5ebc 5243 e5bc
00000320: 85ea 39bd d58d 143c 0d32 0abd 350b 14bd
00000330: 6d96 80bc ab5b 3cbd 4c47 833c 2108 debc
00000340: 35bf 23bd 2dc8 2fbd 40a0 b33c 26d8 e43b
00000350: 3d7f 353d 06bd 403d b97f a1bc 1358 823a
00000360: 7ee8 57bd c36c 64bd c540 083d 004f dd3c
00000370: f1a3 103d b2d6 81bd 6ea0 3d3d 1cad 803c
00000380: 493c 5a3d 94d2 4ebd 88a5 863d 5ea0 0fbd
00000390: a71d ef3b 36ac 363d 5687 5a3d 092b a93d
000003a0: f1b1 30bd 9898 193d a54f c83c 3c8f c23b
000003b0: 7625 153d 3f77 283c ca0e 8dbc bce9 ec3c
000003c0: d077 0fbd 8e28 99bb c77c cc3b 664b 7e3d
000003d0: 9cc9 433c 314e 94bc 2aed 8abd 6e5e 683d
000003e0: c4fe ea3b 4c0c 3f3d 3ffd 54bc 925b 173d
000003f0: 3062 2fbb 0e5f 4dbd 603b 133d cda9 c4bc

encoder.encoder.encoder.2.bias f4 [32]
0.021729024 0.049473163 -0.05007141 0.02890393 -0.06373523 0.031916153 0.049161993 0.0013240242
-0.048087608 0.008483352 -0.00906293 0.0094228 -0.050019037 0.025611315 -0.0248829 -0.035009883
0.010013763 0.02967015 0.036831167 -0.008325836 0.030938104 0.039422076 -0.048576996 0.0020575195
-0.046733987 0.00076127297 -0.043298244 -0.039626792 -0.03301934 0.03254018 0.025866967 -0.01958472
00000000: 1101 b23c 5fa4 4a3d ae17 4dbd efc7 ec3c
00000010: 9e87 82bd 83ba 023d 165e 493d e18a ad3a
00000020: 83f7 44bd c2fd 0a3c af7c 14bc 1662 1a3c
00000030: c3e0 4cbd d2ce d13c 39d7 cbbc 8666 0fbd
00000040: c410 243c d00e f33c 47dc 163d 1669 08bc
00000050: e871 fd3c 0b79 213d acf8 46bd 73d7 063b
00000060: 236c 3fbd 2a90 473a 8059 31bd b44f 22bd
00000070: 4a3f 07bd da48 053d f6e6 d33c 2270 a0bc

encoder.encoder.encoder.4.weight f4 [64, 32, 3, 3]
0.014573162 0.0246553 -0.017121237 0.03487898 0.0082098525 0.011418749 -0.009985572 0.004380454
-0.034735534 0.011910667 -0.016865592 0.0038020075 -0.009077865 -0.057091035 0.013083968 -0.03267944
-0.033904105 0.009646982 -0.042541727 -0.010275165 0.03105622 0.0076820524 0.03360452 -0.004919522
-0.001966435 0.048305463 0.010475214 0.031873785 -0.005387878 -0.030110955 -0.027384182 0.06454305
-0.036122378 0.04207819 -0.04856035 0.01845245 -0.037266 0.024394996 0.02376082 -0.04337878
0.043063123 0.030928183 0.0039129085 0.047770623 -0.022459278 -0.019230582 -0.013290432 0.052421052
-0.036039274 -0.009585407 -0.052250672 0.028042024 0.0031369317 0.026929973 0.04745852 0.017931715
-0.032960735 0.017508944 0.016185181 -0.049873043 -0.027143547 0.022960484 -0.018707568 0.00039938724
-0.048881914 -0.057809982 -0.06220105 0.052696917 -0.02234123 -0.042870004 -0.040092606 0.0069054756
0.05536496 0.015912019 0.018583765 0.01334152 0.021505017 -0.0008039108 0.035677012 0.010402123
0.06109697 0.017699158 0.032453384 0.00074293657 0.03591996 0.0071234996 0.042528667 0.025903575
0.0003113273 0.040414967 0.040755115 0.043195013 -0.044315547 -0.0050932537 0.04264237 0.047269695
-0.015763028 -0.05896755 -0.04658588 0.032877002 -0.051873207 0.017531676 -0.040071424 -0.0015193166
-0.0025796043 -0.00062269677 -0.051879022 0.0033420103 -0.06084364 0.058780007 0.05098803 -0.03066355
-0.03229065 -0.0064901053 -0.035093196 0.0044467463 0.055916514 -0.05175136 -0.008865176 -0.0067015537
0.027172653 0.017396158 -0.035310216 -0.066082254 0.034611404 -0.056267653 -0.016074104 -0.04071021
-0.0025110093 0.047027215 0.004484649 0.05441151 0.03600398 0.0032566441 0.0075355554 -0.016533868
-0.02164472 0.034810003 0.009183339 -0.00935931 0.05520631 -0.030020941 -0.03788949 -0.017401876
-0.030887099 -0.019093517 0.011398694 0.00016225313 0.058275875 0.011237719 -0.034871288 -0.052167796
-0.018950472 0.030744074 0.021250129 -0.05124112 -0.056203943 0.027983565 -0.036511485 0.04562296
-0.055832256 -0.039759144 0.021600373 0.051549133 -0.03100075 -0.0016800128 0.07065219 -0.013951262
0.03361758 0.053688813 0.055251997 -0.048711922 -0.019102043 -0.009903814 -0.031038841 0.012507412
-0.0401229 -0.05692179 -0.012761446 -0.035586677 -0.027907744 0.04515903 0.00027984168 -0.0071481275
-0.015242829 0.043951456 0.039591745 -0.02003263 0.031472415 -0.032497004 -0.03223891 -0.0044904435
-0.015145845 -0.0471949 -0.006832779 0.008142018 0.022880498 -0.01817118 0.03364695 0.0032797041
0.008523698 -0.06158454 0.0003911265 -0.051251292 -0.053819977 -0.0314057 -0.050208174 0.044095308
0.06075623 0.06515732 -0.0017454004 0.043358233 -0.031598102 -0.038025223 0.044805884 0.04632024
0.01200341 -0.02377475 -0.037483755 0.0260413 -0.049576793 0.006338782 0.049258977 -0.03457403
0.05304571 -0.016047714 -0.0069773835 0.040657632 -0.038402986 -0.00026627604 0.02149533 0.048071563
-0.059618957 -0.009813511 -0.011878786 0.012154277 0.056202035 0.02605326 -0.018661633 -0.04196772
0.027400631 -0.0064032683 0.01592109 -0.005175011 -0.03010689 0.049299013 0.03746311 -0.042423774
-0.017335292 -0.05077405 0.055225216 -0.019003863 -0.009125424 0.034828454 -0.0012371627 0.05438273
00000000: 46c4 6e3c e9f9 c93c d641 8cbc 43dd 0e3d
00000010: 9e82 063c b415 3b3c 869a 23bc e989 8f3b
00000020: d946 0ebd f524 433c b629 8abc 1a2b 793b
00000030: 53bb 14bc 4ad8 69bd 245e 563c e0da 05bd
00000040: 08df 0abd 600e 1e3c 3c40 2ebd 2a59 28bc
00000050: 9d69 fe3c bab9 fb3b e5a4 093d f133 a1bb
00000060: 4edf 00bb f3db 453d 3ba0 2b3c 168e 023d
00000070: cc8c b0bb 40ab f6bc cb54 e0bc 262f 843d
00000080: 0ff5 13bd 2e5a 2c3d 38e7 46bd 9829 973c
00000090: 3ca4 18bd 04d8 c73c 0da6 c23c f3ad 31bd
000000a0: f562 303d 1a5d fd3c db37 803b 21ab 433d
000000b0: 85fc b7bc 7489 9dbc 1dc0 59bc 75b7 563d
000000c0: eb9d 13bd 1c0c 1dbc cd04 56bd 63b8 e53c
000000d0: fb94 4d3b 3f9c dc3c dd63 423d 88e5 923c
000000e0: d601 07bd eb6e 8f3c c996 843c ad47 4cbd
000000f0: 255c debc a017 bc3c 9d40 99bc d964 d139
00000100: 6738 48bd 29ca 6cbd 87c6 7ebd b9d8 573d
00000110: f504 b7bc 7598 2fbd 2538 24bd 5447 e23b
00000120: 5ec6 623d ec59 823c fb3c 983c 6496 5a3c
00000130: 4a2b b03c 8abd 52ba 0f22 123d ab6d 2a3c
00000140: d140 7a3d d3fd 903c d7ed 043d a1c1 423a
00000150: cf20 133d 3f6c e93b 8a32 2e3d bc33 d43c
00000160: a539 a339 2a8a 253d d6ee 263d 41ed 303d
00000170: 3884 35bd 4fe5 a6bb c4a9 2e3d de9d 413d
00000180: 7721 81bc f587 71bd d6d0 3ebd 09aa 063d
00000190: 0079 54bd 979e 8f3c ef21 24bd ce23 c7ba
000001a0: 940e 29bb 793c 23ba 197f 54bd a105 5b3b
000001b0: 2e37 79bd 4ec3 703d d3d8 503d 2032 fbbc
000001c0: 3343 04bd f3aa d4bb e2bd 0fbd 03b6 913b
000001d0: b708 653d 3cf9 53bd 3e3f 11bc b598 dbbb
000001e0: 2f99 de3c 6382 8e3c 72a1 10bd 2256 87bd
000001f0: b0c4 0d3d e978 66bd d7ad 83bc c0bf 26bd
00000200: bf8f 24bb 9c9f 403d f6f3 923b 9ade 5e3d
00000210: e978 133d 6c6d 553b d2ec f63b 0972 87bc
00000220: 4550 b1bc ef94 0e3d b775 163c cb57 19bc
00000230: 0320 623d 7aee f5bc 0332 1bbd 618e 8ebc
00000240: f106 fdbc 026a 9cbc 96c1 3a3c 7e22 2a39
00000250: afb2 6e3d 691e 383c 32d5 0ebd e6ad 55bd
00000260: 053e 9bbc ffda fb3c c014 ae3c 35e2 51bd
00000270: 1b36 66bd ca3d e53c 118d 15bd 24df 3a3d
00000280: 5db0 64bd 7cda 22bd 44f3 b03c 2f25 533d
00000290: 49f5 fdbc e033 dcba 18b2 903d d693 64bc
000002a0: 96b2 093d cde8 5b3d eb4f 623d 2786 47bd
000002b0: e37b 9cbc 9b43 22bc 2b45 febc e3eb 4c3c
000002c0: e957 24bd d326 69bd 6215 51bc 56c3 11bd
000002d0: c89e e4bc adf8 383d b7b7 9239 d73a eabb
000002e0: 0fbd 79bc 7106 343d f42a 223d 781b a4bc
000002f0: 38e9 003d 941b 05bd f30c 04bd 9224 93bb
00000300: 4726 78bc 714f 41bd 81e5 dfbb 1966 053c
00000310: e26f bb3c badb 94bc 62d1 093d 4ef0 563b
00000320: fba6 0b3c 1240 7cbd 1c10 cd39 e0ec 51bd
00000330: 5672 5cbd 43a3 00bd 16a7 4dbd 489d 343d
00000340: 86db 783d 3371 853d ebc5 e4ba 6798 313d
00000350: 036d 01bd 56c0 1bbd 6086 373d 4bba 3d3d
00000360: f3a9 443c 44c3 c2bc 9188 19bd 9054 d53c
00000370: 0911 4bbd 8fb5 cf3b c8c3 493d 809d 0dbd
00000380: 7546 593d 7f76 83bc 89a2 e4bb 9e88 263d
00000390: 734c 1dbd f79a 8bb9 f916 b03c b0e6 443d
000003a0: 0233 74bd d9c8 20bc 3d9f 42bc bc22 473c
000003b0: 1b34 663d a56d d53c 48e0 98bc 58e6 2bbd
000003c0: 4a77 e03c 82d2 d1bb f26c 823c 2493 a9bb
000003d0: b9a2 f6bc c3ed 493d eb72 193d 8dc4 2dbd
000003e0: be02 8ebc 73f8 4fbd d633 623d fdad 9bbc
000003f0: cd82 15bc 48a8 0e3d 4b28 a2ba 6dc0 5e3d

encoder.encoder.encoder.4.bias f4 [64]
-0.06120108 -0.006233233 -0.03378776 -0.025729679 0.047222737 0.027533785 0.005088626 -0.043542158
0.0073425304 0.0150078405 0.015284793 -0.0430685 0.02647507 0.020784432 0.023763787 -0.008672444
0.048600946 -0.027887052 0.027544433 -0.0058358917 -0.011713277 0.038027752 0.0452486 0.05646826
-0.014778692 -0.01751935 0.017033445 -0.04391562 -0.050211187 0.017602671 0.017486747 0.029848931
0.04408427 0.032769162 -0.04148912 0.008963415 -0.037023883 -0.033310555 0.0164629 0.038371667
-0.054248337 -0.009542142 0.020117948 -0.051399924 -0.0487449 -0.01893067 0.0100591425 0.046412025
-0.05317933 -0.017524181 0.0082478775 0.02378572 -0.054061532 -0.048058983 0.0084445635 -0.015674185
0.037623018 -0.0020011172 0.024855966 -0.0012242318 -0.048052922 -0.03894281 0.029538509 -0.0027857737
00000000: fcad 7abd 2640 ccbb 0965 0abd 0cc7 d2bc
00000010: a16c 413d 888e e13c 7dbe a63b 4359 32bd
00000020: 9c99 f03b 72e3 753c 126d 7a3c 9868 30bd
00000030: 3fe2 d83c 1d44 aa3c 46ac c23c de16 0ebc
00000040: c911 473d 6373 e4bc dda4 e13c 023b bfbb
00000050: 0be9 3fbc fdc2 1b3d 9956 393d 434b 673d
00000060: 5422 72bc bd84 8fbc b989 8b3c dde0 33bd
00000070: 3faa 4dbd 7a33 903c 5e40 8f3c bf85 f43c
00000080: b591 343d f538 063d 7ff0 29bd 4adb 123c
00000090: 5ba6 17bd a670 08bd 34dd 863c 9c2b 1d3d
000000a0: 8133 5ebd a556 1cbc 65ce a43c ba88 52bd
000000b0: bba8 47bd 7e14 9bbc 1acf 243c 891a 3e3d
000000c0: 92d2 59bd df8e 8fbc 1b22 073c 45da c23c
000000d0: a06f 5dbd 7fd9 44bd 115b 0a3c 2667 80bc
000000e0: 981a 1a3d 2d25 03bb bd9e cb3c 6776 a0ba
000000f0: 24d3 44bd 7f82 1fbd befa f13c 8791 36bb

encoder.encoder.fc_mu.weight f4 [16, 1024]
-0.02192537 -0.02828172 -0.024569374 -0.033043884 -0.017168408 -0.028967258 -0.025639832 -0.004663636
0.026140386 -0.029060291 -0.0063745882 -0.005444525 -0.029135479 0.0079264315 -0.025467811 0.009658344
-0.005388255 -0.0259339 -0.01480476 -0.0135451 -0.00398983 0.0052723344 0.026106095 0.016117148
-0.0012479046 -0.014191045 -0.022093501 -0.0052232877 0.018479694 -0.023960393 0.031724542 0.0057827854
-0.033746943 0.014649849 0.015177652 -0.007921766 0.034842875 -0.0053862976 0.0044605085 -0.024534915
-0.0009283534 0.016179187 -0.015570712 0.016962212 0.03543438 0.030734342 0.035315756 0.001714951
-0.04316011 -0.044683527 0.004953607 -0.0013631386 -0.02555087 -0.029557906 0.013840145 0.013631199
-0.010062158 0.02509315 0.021044163 -0.010759556 0.020369908 0.029812675 -0.017733192 0.0050131134
0.013438065 0.008225061 0.012135087 0.03175246 0.007496266 0.01113888 0.028389204 -0.012753332
-0.0020020031 0.034160078 0.035133295 0.026625337 0.02750745 -0.017414477 -0.022190334 0.007600808
0.015445217 -0.0069878153 -0.0055499068 0.03418819 0.005996654 0.027227087 0.030179359 -0.007926367
-0.0114786215 0.0077809403 -0.018354949 -0.008988034 0.03191866 0.0044323527 -0.010966321 0.019355642
-0.008432231 -0.030402582 -0.03276061 -0.0074219774 -0.032090634 -0.0028052642 -0.0002772772 -0.015720949
-0.01367113 0.030882759 0.02021639 -0.028930543 -0.061058637 -0.019373663 0.025382489 -0.019160049
0.0013630739 -0.008589967 -0.014297769 -0.001349271 -0.0061217593 -0.010337778 0.0029051865 0.015574171
0.0008647402 -0.00094369776 0.02675484 -0.012321111 -0.0043136785 -0.024922954 0.026782276 -0.028314374
0.02716305 -0.03368845 -0.012995065 -0.01544626 -0.006639119 -0.009689719 0.030952437 -0.015502956
-0.032189254 -0.016594982 0.025508052 0.018509472 0.0048175063 -0.010967215 -0.016406568 0.0045172893
0.010165579 0.0018983178 0.0036828113 -0.018603645 -0.0043987455 0.004045002 -0.018782405 -0.020887472
0.017494613 -0.023185305 0.013785501 0.009201516 0.0056208177 -0.024839904 -0.035185646 -0.024750458
0.015732331 -0.024351988 0.0075533497 0.0221671 0.0063031875 0.024847839 -0.014792941 -0.02435754
0.009375923 0.024529047 -0.023162702 0.0039729 -0.016140962 -0.025103133 0.016459735 0.0013198273
-0.032814275 -0.013689842 -0.011213172 0.020861346 -0.01976056 -0.012160246 0.0055259503 0.00033523038
-0.009397139 0.015932318 -0.021273741 -0.013723936 0.017114688 -0.0058634994 0.011516819 -0.0045993174
-0.00996416 -0.030323653 0.0124427965 -0.014070016 0.027993632 -0.02530109 -0.03222344 -0.021019755
0.019783413 -0.020592282 0.02351437 0.0025551396 -0.014951165 -0.028980883 -0.030537928 -0.013024531
0.02767137 0.0008786067 0.011418117 0.029264562 0.032045204 -0.033679254 -0.016643079 -0.010222391
-0.015676502 -0.02378395 0.0076408056 -0.025854826 0.025001002 -0.014363979 0.0073314197 0.026120929
-0.026029874 -0.028683696 0.02603193 -0.015533888 0.0010244346 0.00757256 -0.025584012 -0.022377266
0.017838754 -0.025311932 0.021634776 -0.034907028 0.017666843 0.02836776 -0.0051117493 0.03090726
0.002230156 0.03544553 0.0035954209 0.00691333 -0.00025767207 0.013006288 -0.012027087 0.0025805368
-0.018112496 0.0035316725 -0.014287912 0.034941502 0.0050279708 0.013197539 -0.0052155317 -0.023134168
00000000: d59c b3bc 11af e7bc b645 c9bc 0659 07bd
00000010: c3a4 8cbc be4c edbc a00a d2bc 6ad1 98bb
00000020: 5d24 d63c d90f eebc ece1 d0bb fc67 b2bb
00000030: 87ad eebc dddd 013c dfa1 d0bc 083e 1e3c
00000040: f68f b0bb 5573 d4bc aa8f 72bc 44ec 5dbc
00000050: 1fbd 82bb 8cc3 ac3b 73dc d53c 1c08 843c
00000060: bb90 a3ba 8f81 68bc 6efd b4bc 1d28 abbb
00000070: ba62 973c 9648 c4bc 98f1 013d 857d bd3b
00000080: 3c3a 0abd ec05 703c b0ab 783c 4bca 01bc
00000090: 67b7 0e3d 8a7f b0bb 7529 923b 72fd c8bc
000000a0: be5c 73ba 378a 843c 4d1c 7fbc 56f4 8a3c
000000b0: a423 113d 96c6 fb3c 41a7 103d 35c8 e03a
000000c0: a8c8 30bd 1306 37bd de51 a23b 57ab b2ba
000000d0: 0f50 d1bc 6c23 f2bc c7c1 623c 6455 5f3c
000000e0: c0db 24bc 2690 cd3c cf64 ac3c d948 30bc
000000f0: cbde a63c b639 f43c 3345 91bc 0b45 a43b
00000100: 542b 5c3c 68c2 063c 3ed2 463c de0e 023d
00000110: 3da3 f53b d97f 363c 7a90 e83c 5af3 50bc
00000120: 0a34 03bb 70eb 0b3d eee7 0f3d 611d da3c
00000130: 4e57 e13c cea8 8ebc 81c8 b5bc 3310 f93b
00000140: ef0d 7d3c 0bfa e4bb fedb b5bb ea08 0c3d
00000150: 947f c43b 570b df3c b43a f73c 98dd 01bc
00000160: d410 3cbc 42f7 fe3b 1e5d 96bc 8c42 13bc
00000170: 24bd 023d 453d 913b 16ac 33bc b98f 9e3c
00000180: 5727 0abc d60e f9bc fd2f 06bd 0f34 f3bb
00000190: 7871 03bd 86d8 37bb 845f 91b9 38c9 80bc
000001a0: e0fc 5fbc d7fd fc3c d89c a53c bfff ecbc
000001b0: 9f18 7abd 84b5 9ebc f0ee cf3c 89f5 9cbc
000001c0: 2ca9 b23a efbc 0cbc 3141 6abc 06da b0ba
000001d0: 0a99 c8bb c95f 29bc f164 3e3b cf2a 7f3c
000001e0: bcaf 623a 7c62 77ba f72c db3c 7cde 49bc
000001f0: c259 8dbb 392b ccbc 8166 db3c 8cf3 e7bc
00000200: 0b85 de3c e6fc 09bd 41e9 54bc 4f12 7dbc
00000210: f78c d9bb a1c1 1ebc f78f fd3c 1c00 7ebc
00000220: e1d8 03bd 33f2 87bc 43f6 d03c 2da1 973c
00000230: 2cdc 9d3b d5af 33bc 1167 86bc c505 943b
00000240: 878d 263c fad0 f83a 525b 713b ac66 98bc
00000250: 5a23 90bb f08b 843b 8fdd 99bc 341c abbc
00000260: dd50 8f3c 1cef bdbc 95dc 613c f5c1 163c
00000270: d62e b83b 0e7d cbbc d31e 10bd 79c1 cabc
00000280: 17e1 803c d27d c7bc 1782 f73b c797 b53c
00000290: f88a ce3b b28d cb3c 175e 72bc 7789 c7bc
000002a0: 799d 193c 24f1 c83c b5bf bdbc 1a2f 823b
000002b0: 0d3a 84bc 16a5 cdbc 91d6 863c 0efe ac3a
000002c0: 4368 06bd 5c4b 60bc 74b7 37bc 6ae5 aa3c
000002d0: e6e0 a1bc c53b 47bc 0813 b53b dcc1 af39
000002e0: 75f6 19bc 7e84 823c 4546 aebc 5cda 60bc
000002f0: 1a34 8c3c 9922 c0bb 0ab1 3c3c dfb5 96bb
00000300: b740 23bc 4f69 f8bc dfdc 4b3c ed85 66bc
00000310: e752 e53c 3b44 cfbc bafc 03bd 9f31 acbc
00000320: d310 a23c 25b1 a8bc 35a1 c03c 2174 273b
00000330: bbf5 74bc 5169 edbc ad2a fabc d864 55bc
00000340: 12af e23c 4c52 663a 0e13 3b3c 3cbc ef3c
00000350: d541 033d 42f3 09bd 1157 88bc d17b 27bc
00000360: 026c 80bc 8fd6 c2bc b95f fa3b 80cd d3bc
00000370: e7ce cc3c e556 6bbc 683c f03b 8ffb d53c
00000380: 9a3c d5bc 12fa eabc ea40 d53c d981 7ebc
00000390: 5246 863a 3d23 f83b 9095 d1bc 8750 b7bc
000003a0: 9422 923c f85a cfbc 6a3b b13c acfa 0ebd
000003b0: 0eba 903c 8163 e83c 7680 a7bb 3931 fd3c
000003c0: cf27 123b 552f 113d 27a1 6b3b 3789 e23b
000003d0: 2918 87b9 5318 553c 420d 45bc 391e 293b
000003e0: a860 94bc a273 673b d917 6abc d21e 0f3d
000003f0: adc1 a43b 7e3a 583c 0de7 aabb de83 bdbc

encoder.encoder.fc_mu.bias f4 [16]
-0.0049721436 -0.012132663 0.013541283 -0.008814153 0.009967421 0.025120636 0.023810819 -0.017442847
0.012070816 -0.007977852 0.018582033 -0.017963337 -0.014567044 0.0105397515 -0.010025669 0.005224824
00000000: 5ded a2bb 14c8 46bc 42dc 5d3c 3d69 10bc
00000010: 654e 233c cbc9 cd3c e80e c33c 4de4 8ebc
00000020: acc4 453c 89b5 02bc 5939 983c d927 93bc
00000030: 9caa 6ebc ecae 2c3c b442 24bc 0035 ab3b

encoder.encoder.fc_var.weight f4 [16, 1024]
-0.020131452 0.01470995 0.006512771 0.029539017 0.0072029084 0.0115713505 0.014843091 -0.026864968
-0.009496756 0.01165479 -0.019003218 0.015787182 -0.01726669 0.014977275 0.02198678 -0.02357439
0.010083338 0.026508365 0.02638814 -0.0073789475 0.0011223078 -0.0054051178 -0.029726693 0.022061773
0.026857065 -0.00032607408 -0.026408773 0.022908755 -0.01815436 -0.004372314 -0.015226 0.022747055
0.0073602875 0.03228978 -0.02863359 -0.019233871 -0.0052929567 0.0027697966 -0.005103643 -0.0116202235
-0.017397644 -0.0048760967 -0.011073318 -0.011899632 -0.008177467 -0.0004455783 0.012672447 0.023868222
0.025460063 0.0066022673 0.02031527 -0.017105093 0.023702657 -0.034888845 -0.01973962 -0.028433539
0.02149742 0.0043404284 0.0048647476 -0.008874416 -0.022354072 0.0013773461 0.021559663 0.024540342
0.025678685 0.017942308 -0.03188803 -0.020071927 -0.023777692 -0.017972263 0.0011616286 0.0042076274
0.00036142583 -0.017980373 0.012932638 -0.017333923 0.024375679 0.014616112 -0.0025610975 0.023696946
-0.016641207 0.014152711 -0.0132417865 0.023222873 0.012277105 -0.020001087 -0.024557704 0.027818168
-0.018284762 0.00047180383 -0.016583996 0.014734624 0.00015631037 0.0003699569 -0.001288372 -0.034721926
-0.0112061305 0.0020021584 -0.031120064 -0.030565724 -0.004707859 0.0019201257 -0.013522079 -0.0048462725
-0.035849098 -0.0076680975 0.0009728488 -0.0024540555 0.029279573 -0.008815441 0.02953298 0.021125687
-0.017042695 0.013366671 -0.018346151 0.020660684 -0.026913099 -0.027926799 -0.026902765 0.030771174
-0.021737505 0.025569227 0.008089251 0.0008737489 0.009101498 0.008146328 -0.0018259322 -0.0072469837
0.010570252 0.022862656 0.019269254 0.01777396 0.015956039 -0.0036300877 0.0038656879 -0.029277058
0.010943892 -0.00792363 -0.0138097275 0.004428236 0.025928628 0.015896441 -0.012732681 0.01819547
0.019687243 -0.021189833 -0.00833702 -0.0068420907 0.025640069 0.014678926 0.02100629 0.028338276
0.031920325 0.010465503 0.0005415562 -0.02553666 0.008015422 -0.032186072 -0.017308732 0.019679893
0.004128797 -0.027323913 -0.015800307 -0.018107897 -0.0048635993 0.017364794 -0.009714105 -0.012086636
0.024680095 0.020362152 -0.026409281 0.0041920105 -0.016035233 -0.008686321 -0.004603229 -0.02141039
-0.005953201 0.02253224 0.017118484 0.019744754 -0.019238416 -0.015608741 -0.016724974 -0.038930073
-0.0057699424 0.010919899 -0.000963327 -0.031533413 0.011690151 -0.022422008 0.0010280802 0.010182582
0.00040499325 0.0013104258 -0.021471089 -0.025895875 -0.006573785 -0.021138107 -0.031806428 0.012262213
-0.033168003 -0.01992374 -0.003679006 0.014905173 0.015544789 -0.019971814 -0.004818234 0.023735592
-0.017457949 0.015629759 0.004936677 0.016325178 0.0012128784 0.016313784 -0.019204427 0.012851056
0.018689029 0.0053669983 0.024382679 -0.017929599 -0.029532565 -0.024682987 -0.0073194928 0.0070208493
-0.027337309 -0.0059631397 -0.02595375 -0.01702893 -0.006465663 -0.010312472 -0.008505795 -0.023982164
-0.020695912 -0.01895394 0.0003908388 -0.02316316 -0.026521688 -0.02365635 0.011985016 -0.025618559
-0.0035991096 -0.024549905 0.02520119 -0.023713505 0.0130270915 0.0020399706 -0.0051757945 0.003938152
0.015655182 -0.0042878557 -0.014019109 -0.006675402 0.0016631073 -0.027606683 0.01601838 -0.020730501
00000000: b7ea a4bc 0102 713c 1569 d53b cffb f13c
00000010: 6006 ec3b c395 3d3c 7030 733c ec13 dcbc
00000020: 4898 1bbc bbf3 3e3c a3ac 9bbc 1f54 813c
00000030: e072 8dbc 3f63 753c 9f1d b43c 141f c1bc
00000040: 9634 253c 1228 d93c f12b d83c 19cb f1bb
00000050: 671a 933a 6a1d b1bb 6585 f3bc e4ba b43c
00000060: 5903 dc3c ecf4 aab9 3657 d8bc 24ab bb3c
00000070: 74b8 94bc a145 8fbb 7976 79bc 0858 ba3c
00000080: 912e f13b 4a42 043d fe90 eabc 5a90 9dbc
00000090: 8a70 adbb 7a85 353b 763c a7bb c062 3ebc
000000a0: 8185 8ebc aac7 9fbb dd6c 35bc adf6 42bc
000000b0: c8fa 05bc 829c e9b9 18a0 4f3c 4a87 c33c
000000c0: 9f91 d03c d557 d83b 366c a63c fb1f 8cbc
000000d0: 132c c23c 9be7 0ebd fcb4 a1bc 74ed e8bc
000000e0: 5b1b b03c 273a 8e3b 7668 9f3b 0066 11bc
000000f0: e31f b7bc 1188 b43a e49d b03c d408 c93c
00000100: 1b5c d23c bffb 923c 069d 02bd e26d a4bc
00000110: 6fc9 c2bc 913a 93bc ca41 983a 23e0 893b
00000120: c17d bd39 934b 93bc 6ae3 533c dfff 8dbc
00000130: 81af c73c 6b78 6f3c 16d8 27bb 1920 c23c
00000140: 2453 88bc c6e0 673c 14f4 58bc e53d be3c
00000150: e925 493c 52d9 a3bc 3d2d c9bc ede2 e33c
00000160: edc9 95bc 705c f739 29db 87bc 7e69 713c
00000170: 3fe7 2339 c6f6 c139 97de a8ba 9438 0ebd
00000180: eb99 37bc a536 033b 81ef febc f864 fabc
00000190: 6244 9abb baac fb3a b68b 5dbc 7bcd 9ebb
000001a0: 81d6 12bd aa44 fbbb c706 7f3a 38d4 20bb
000001b0: b7db ef3c a46e 10bc 26ef f13c c70f ad3c
000001c0: 1f9d 8bbc e2ff 5a3c ab4a 96bc 9840 a93c
000001d0: dc78 dcbc bec6 e4bc 3063 dcbc d413 fc3c
000001e0: da12 b2bc 8e76 d13c c788 043c 4c0c 653a
000001f0: 731e 153c 2d78 053c 1e54 efba 1b78 edbb
00000200: da2e 2d3c 774a bb3c 8eda 9d3c b29a 913c
00000210: 3db6 823c c4e6 6dbb 7b57 7d3b 71d6 efbc
00000220: 034e 333c 1dd2 01bc 3242 62bc bc1a 913b
00000230: 4668 d43c 4139 823c bc9c 50bc ab0e 953c
00000240: 2447 a13c 4d96 adbc ff97 08bc 9e33 e0bb
00000250: 1f0b d23c e17f 703c 6215 ac3c ac25 e83c
00000260: e3be 023d 8077 2b3c 39f7 0d3a 4232 d1bc
00000270: 1e53 033c 8bd5 03bd 0bcb 8dbc ba37 a13c
00000280: dc4a 873b 66d6 dfbc a56f 81bc 0357 94bc
00000290: d45e 9fbb 9d40 8e3c e927 1fbc 0707 46bc
000002a0: e92d ca3c 87ce a63c 4758 d8bc 225d 893b
000002b0: 525c 83bc 1251 0ebc afd6 96bb d864 afbc
000002c0: 1213 c3bb 8895 b83c 103c 8c3c c0bf a13c
000002d0: e299 9dbc cebb 7fbc d002 89bc 2475 1fbd
000002e0: c911 bdbb 60e9 323c c887 7cba 2e29 01bd
000002f0: 0c88 3f3c 5cae b7bc a6c0 863a d8d4 263c
00000300: 4655 d439 98c2 ab3a 23e4 afbc 9623 d4bc
00000310: e868 d7bb d329 adbc 7547 02bd 73e7 483c
00000320: 2cdb 07bd 1c37 a3bc 7a1b 71bb d434 743c
00000330: 92af 7e3c ee9b a3bc 47e2 9dbb 2571 c23c
00000340: f903 8fbc fb09 803c d9c3 a13b 61bc 853c
00000350: 72f9 9e3a 7ca4 853c 9a52 9dbc 3c8d 523c
00000360: bc19 993c a5dd af3b 2fbe c73c 18e1 92bc
00000370: 47ee f1bc fa33 cabc 5bd8 efbb 270f e63b
00000380: 7ef2 dfbc 7166 c3bb f59c d4bc 4180 8bbc
00000390: eadd d3bb a4f5 28bc e45b 0bbc 3e76 c4bc
000003a0: 798a a9bc 4b45 9bbc 7fe9 cc39 abc0 bdbc
000003b0: 0344 d9bc f6ca c1bc cd5c 443c 03de d1bc
000003c0: 0adf 6bbb e21c c9bc ba72 ce3c d342 c2bc
000003d0: 956f 553c 07b1 053b b699 a9bb 9d0b 813b
000003e0: 4c3f 803c 2481 8cbb 68b0 65bc 55bd dabb
000003f0: 9ffc d93a 6927 e2bc fa38 833c 03d3 a9bc

encoder.encoder.fc_var.bias f4 [16]
0.013849693 -0.006504645 0.018773256 -0.009894021 -0.016654829 -0.01811067 0.0146874 -0.019975875
-0.01684646 0.029075848 0.0033405372 0.010911892 -0.023950104 -0.018686263 0.017257182 0.0025032328
00000000: d3e9 623c eb24 d5bb 5fca 993c 881a 22bc
00000010: b56f 88bc d45c 94bc 6ca3 703c 72a4 a3bc
00000020: 9601 8abc 7930 ee3c eaec 5a3b cbc7 323c
00000030: 0233 c4bc ef13 99bc ef5e 8d3c 470d 243b

decoder.decoder.decoder_input.weight f4 [1024, 16]
-0.1468319 -0.07781987 0.1612648 0.2106851 -0.23348005 -0.2545907 -0.015266157 0.09460814
-0.23104334 -0.07184358 -0.09513907 -0.09924651 -0.16785732 0.16199735 -0.06458277 0.11596857
-0.23202448 -0.18127084 -0.09431018 -0.101210795 0.15223454 -0.14168699 -0.16584279 -0.17079332
0.061419237 0.11912349 -0.24803026 -0.21605225 0.24892186 0.16906534 -0.11140658 0.07105071
-0.19238897 0.19083513 0.14576663 -0.1313802 0.0021630914 -0.016712794 0.13682416 0.012790108
0.1760506 0.22242591 0.1896876 -0.114202276 0.25514963 -0.20792915 -0.046302486 -0.23529395
-0.20452523 -0.053855322 -0.021777483 0.19923821 0.22468276 -0.16610783 -0.15341955 -0.23021333
0.22643785 0.034357734 -0.22259237 -0.009783502 0.2339433 -0.027935646 -0.009861399 -0.26479223
-0.10994895 0.058088947 0.24559791 -0.13394897 -0.12099294 -0.12891816 -0.15722948 0.1917805
0.22653379 -0.031873662 0.14207512 0.10760573 0.18536009 -0.02568114 0.2664707 0.14971922
-0.009940878 0.042118423 -0.004255746 0.1251877 -0.18747608 0.1681578 0.06895356 -0.024264943
-0.22023743 0.1788266 0.10953102 0.2310778 0.10458922 0.2567168 -0.25135607 0.15521811
0.1393768 -0.12606694 -0.009454559 -0.05197694 -0.13078175 -0.18448101 0.09041467 0.019350762
-0.10002811 0.092747346 0.07577029 -0.22973013 -0.14995623 0.20205691 0.08390023 -0.09377981
-0.2420581 0.23183163 -0.093575224 0.24706285 0.19954284 -0.22675498 -0.12505575 0.15846029
0.18952878 -0.021919262 -0.09802215 0.21026336 -0.100003615 -0.036952034 -0.177902 0.13062371
0.033311445 0.08307284 0.059838198 0.09117883 -0.19891915 0.19342647 0.048461683 -0.024836784
-0.21441346 -0.15759139 -0.22516336 0.028307326 -0.11076563 -0.25041112 -0.0047972635 -0.086559646
0.15336405 -0.040127993 0.16660912 0.030236548 -0.013339684 0.10746953 0.043872356 -0.17575896
-0.08090535 -0.27215505 -0.17151397 0.04827986 0.2051521 0.06534585 0.08683649 -0.12836953
-0.2591375 0.07473693 0.07525535 -0.05811801 -0.17288345 -0.16082294 -0.044429872 0.084628545
-0.21445055 -0.0032249105 0.01450221 -0.06409341 0.14102666 -0.06512259 -0.15934202 0.25465268
0.18262616 0.20352587 0.14853823 0.15609679 0.22591904 -0.023738561 -0.19271095 0.1896643
0.18017758 0.016294781 0.19979422 -0.14993444 0.0027663806 -0.041851375 0.012227446 0.12956493
-0.14574333 0.038645815 -0.037329264 0.109438464 -0.12377072 0.042275883 -0.22747646 -0.222823
0.032553058 -0.0902965 0.17540066 -0.09644931 0.099234946 -0.21628654 -0.13050556 0.10897718
-0.16696829 0.060127225 -0.19432688 -0.14965194 -0.2356401 0.22733805 -0.04053234 0.18133157
0.032776937 0.12336025 0.17693083 0.20389296 -0.24235606 0.06890626 0.22432773 0.17641136
-0.03205407 0.09905724 0.15588526 0.21127543 0.1854338 0.05126338 0.09660779 0.18106318
0.17425676 0.0058711492 0.03454458 0.17661195 -0.10257084 0.24945962 0.13954037 0.009981234
0.12880702 0.051457416 0.1028432 -0.10258872 0.14250018 -0.05140805 0.21523967 -0.23065127
0.1884068 0.1871601 -0.147486 -0.036890924 0.077699475 0.05135118 -0.0028535728 0.23605713
00000000: 1a5b 16be 0660 9fbd 9a22 253e d6bd 573e
00000010: 6515 6fbe b659 82be e71e 7abc eac1 c13d
00000020: a096 6cbe ba22 93bd 46d8 c2bd c141 cbbd
00000030: cae2 2bbe a2e2 253e f943 84bd ee80 ed3d
00000040: d397 6dbe 109f 39be b225 c1bd 9b47 cfbd
00000050: 5fe3 1b3e 6516 11be b1d2 29be 72e4 2ebe
00000060: bd92 7b3d 04f7 f33d a5fb 7dbe cd3c 5dbe
00000070: 5fe5 7e3e 771f 2d3e 2229 e4bd 0983 913d
00000080: 9d01 45be 496a 433e d943 153e 8888 06be
00000090: a7c2 0d3b 45e9 88bc a21b 0c3e 9a8d 513c
000000a0: 9c46 343e 9ec3 633e 773d 423e e2e2 e9bd
000000b0: f9a2 823e 61eb 54be ada7 3dbd e6f0 70be
000000c0: 106f 51be 6697 5cbd b166 b2bc 1a05 4c3e
000000d0: 3d13 663e 2c18 2abe 041a 1dbe 0bbd 6bbe
000000e0: 53df 673e b2ba 0c3d 41ef 63be fb4a 20bc
000000f0: d58e 6f3e 4cd9 e4bc b591 21bc d992 87be
00000100: ea2c e1bd adee 6d3d 057e 7b3e eb29 09be
00000110: 26cb f7bd 1f03 04be c400 21be 1b62 443e
00000120: 79f8 673e f58d 02bd 247c 113e 6560 dc3d
00000130: 09cf 3d3e 4161 d2bc d96e 883e ff4f 193e
00000140: 10df 22bc 5e84 2c3d c973 8bbb 3431 003e
00000150: bbf9 3fbe 8f31 2c3e 8637 8d3d 46c7 c6bc
00000160: ec85 61be 521e 373e cd51 e03d a99f 6c3e
00000170: df32 d63d 6270 833e beb1 80be 7ff1 1e3e
00000180: cbb8 0e3e b117 01be 4be7 1abc c6e5 54bd
00000190: a7eb 05be 97e8 3cbe 542b b93d 7d85 9e3c
000001a0: 8adb ccbd 52f2 bd3d 742d 9b3d 603e 6bbe
000001b0: 208e 19be 02e8 4e3e e2d3 ab3d a10f c0bd
000001c0: 14de 77be 4565 6d3e 5ea4 bfbd 0bfe 7c3e
000001d0: f554 4c3e 7532 68be 9d0e 00be 6a43 223e
000001e0: d513 423e 0690 b3bc d6bf c8bd 474f 573e
000001f0: b2ce ccbd 045b 17bd f12b 36be 39c2 053e
00000200: 9571 083d 1822 aa3d e618 753d f7bb ba3d
00000210: 76b1 4bbe 9711 463e c27f 463d 8376 cbbc
00000220: 348f 5bbe a35f 21be 3991 66be c4e4 e73c
00000230: 17d9 e2bd e335 80be 5d32 9dbb 2f46 b1bd
00000240: 770b 1d3e 405d 24bd 959b 2a3e a3b2 f73c
00000250: b18e 5abc fc18 dc3d 80b3 333d 28fa 33be
00000260: b4b1 a5bd e857 8bbe 5ca1 2fbe 1ac1 453d
00000270: 6413 523e 0cd4 853d 54d7 b13d 4d73 03be
00000280: acad 84be ad0f 993d 7a1f 9a3d 270d 6ebd
00000290: 5c08 31be c5ae 24be 19fc 35bd bb51 ad3d
000002a0: ed98 5bbe 0559 53bb ad9a 6d3c 6843 83bd
000002b0: 4b69 103e fe5e 85bd 8e2a 23be d661 823e
000002c0: 5a02 3b3e 1669 503e 681a 183e d6d7 1f3e
000002d0: 5257 673e 5f77 c2bc 0556 45be 5c37 423e
000002e0: 7980 383e a27c 853c db96 4c3e 6a88 19be
000002f0: 2a4c 353b 596c 2bbd a055 483c abac 043e
00000300: bd3d 15be 134b 1e3d 92e6 18bd 4621 e03d
00000310: 817b fdbd 7a29 2d3d 97ef 68be b62b 64be
00000320: 5b56 053d 5fed b8bd 3b9c 333e 3787 c5bd
00000330: b13b cb3d 387a 5dbe 40a3 05be 6e2f df3d
00000340: bcf9 2abe f747 763d a0fd 46be 5c3e 19be
00000350: a34b 71be 4ecb 683e 3d05 26bd fcae 393e
00000360: 1c41 063d 4ca4 fc3d 5b2d 353e 51c9 503e
00000370: 302c 78be ba1e 8d3d 2bb6 653e 2ea5 343e
00000380: 214b 03bd 86de ca3d 63a0 1f3e 9658 583e
00000390: 5ce2 3d3e 8df9 513d 4eda c53d a068 393e
000003a0: 5d70 323e c562 c03b 9e7e 0d3d c3d9 343e
000003b0: a910 d2bd 5872 7f3e ace3 0e3e 5488 233c
000003c0: fde5 033e 03c5 523d 759f d23d 091a d2bd
000003d0: 91eb 113e 3f91 52bd ca67 5c3e d92f 6cbe
000003e0: b6ed 403e e6a6 3f3e 9206 17be f01a 17bd
000003f0: e720 9f3d 9d55 523d 0203 3bbb f6b8 713e

decoder.decoder.decoder_input.bias f4 [1024]
0.06397037 -0.014275243 -0.13780761 0.13865863 0.17986193 -0.18925993 0.14210625 0.092791066
0.23655441 0.20851274 0.033124197 -0.055409316 0.28201044 0.11384558 0.15015098 0.2866248
-0.26460552 0.19700481 -0.15553372 -0.13694902 0.100065954 0.0382691 0.27833217 -0.10815802
0.050768636 -0.142104 -0.0065027 -0.13405806 -0.28693923 -0.27212194 -0.2499701 0.007322466
0.31078416 -0.04922947 -0.115363084 -0.04700763 0.07974291 0.25963172 0.16278672 -0.04533123
0.17564443 0.10322561 0.11235356 0.03120828 0.057640873 -0.15382844 0.16231085 0.20405196
-0.12536058 0.22120339 0.34106794 -0.07414289 -0.13389306 -0.035115264 -0.080340415 0.043257385
-0.23986492 0.116020024 0.30044076 -0.0023479455 0.14137612 -0.028176058 0.292655 0.1722368
0.26934946 0.20744538 0.2941279 -0.01221412 0.28493512 -0.08795853 0.118597895 0.0524237
0.29808295 0.16014181 0.27371153 0.15684474 0.06927958 0.2295786 -0.015484012 0.22730246
0.24980687 -0.21421331 0.10342331 -0.0031370185 0.0522033 -0.23050615 0.04043591 0.12563723
0.28009066 -0.22802502 -0.007678472 -0.27648258 0.116143554 -0.15534467 0.23729303 0.12753892
-0.14171739 0.07568019 0.17891757 -0.055204835 -0.29309392 0.27050284 0.25887227 0.12792066
0.18466139 0.11325489 -0.13252798 -0.27227554 -0.058271807 0.0007882708 -0.012840401 -0.06710184
0.11539773 -0.010627757 0.2812007 0.06980456 0.09214378 -0.21747017 -0.029123975 0.063662566
0.10187655 -0.23097053 -0.19828579 -0.102263786 0.16718923 -0.22251183 -0.08422235 0.19876114
-0.31290346 -0.02928155 -0.10255075 -0.06953239 -0.25242305 0.099903904 0.19295146 0.12041746
-0.058042098 0.25069693 -0.20197257 -0.24460912 -0.1261623 -0.23959477 -0.16597502 -0.30925646
-0.30360454 -0.091893904 -0.041960843 -0.19779725 0.11968186 -0.19434085 -0.1616937 -0.28878382
-0.028215405 0.045774076 -0.058866788 0.087153904 -0.23240744 -0.20137316 -0.23698403 0.047710944
0.10333318 -0.31496182 -0.040258646 0.110067144 -0.2125299 -0.06560936 -0.12088967 -0.06420213
-0.25161603 -0.10112478 -0.13408503 0.093513206 -0.20604934 -0.20125583 -0.2522069 -0.039044663
0.072337896 0.25147787 -0.15478487 -0.14808854 0.23458272 0.25670704 -0.11675539 0.10173092
-0.17920499 -0.0683478 -0.05837735 0.09958484 0.027478255 -0.27971748 -0.29459205 0.22842903
-0.11208578 -0.22263435 -0.20748913 -0.106964976 -0.12328039 -0.094928175 -0.2611908 -0.12594303
-0.19406568 0.1752167 -0.09172426 0.11951129 -0.02089089 -0.27695692 0.087024175 -0.26059315
-0.14641564 0.0507676 -0.14887623 0.019926976 0.20299782 0.2497322 0.06525781 0.044820055
0.15075313 0.15578824 -0.0049623316 -0.096425064 0.2886716 0.28475535 0.056969646 0.25939342
-0.26269227 -0.21988864 -0.1579747 -0.18769865 -0.1438159 -0.28735012 0.01627486 0.1783285
-0.26153135 0.041751653 -0.29065642 0.19296974 -0.15649901 -0.16477382 0.16444023 0.2594839
-0.09322504 -0.11529393 0.103425086 0.1289559 0.14782055 0.12769729 -0.08819684 0.21656285
0.17224161 0.12239626 0.078715965 -0.064447455 -0.2736932 -0.083954476 -0.10097555 -0.2889431
00000000: e602 833d b5e2 69bc 701d 0dbe 87fc 0d3e
00000010: ba2d 383e 5bcd 41be 4d84 113e 3e09 be3d
00000020: 523b 723e 5d84 553e 3dad 073d e1f4 62bd
00000030: ac63 903e df27 e93d 2ec1 193e 7cc0 923e
00000040: 607a 87be a1bb 493e 3b44 1fbe 5d3c 0cbe
00000050: 61ef cc3d 0fc0 1c3d 8e81 8e3e f481 ddbd
00000060: c6f2 4f3d b683 11be 9a14 d5bb 8446 09be
00000070: b3e9 92be 9153 8bbe 29f8 7fbe 4cf1 ef3b
00000080: 1a1f 9f3e d7a4 49bd 7b43 ecbd 138b 40bd
00000090: 4050 a33d 73ee 843e 90b1 263e 3dad 39bd
000000a0: 22dc 333e f367 d33d a019 e63d 82a8 ff3c
000000b0: d618 6c3d 3485 1dbe d134 263e fff2 503e
000000c0: 865e 00be 2483 623e 75a0 ae3e 3ad8 97bd
000000d0: 431b 09be 06d5 0fbd 8489 a4bd a82e 313d
000000e0: 269f 75be e89b ed3d 5fd3 993e fddf 19bb
000000f0: e7c4 103e 7ad1 e6bc e0d6 953e d85e 303e
00000100: 2ce8 893e 906c 543e ef97 963e bb1d 48bc
00000110: 04e3 913e 9a23 b4bd 74e3 f23d 3cba 563d
00000120: 549e 983e 37fc 233e eb23 8c3e e89b 203e
00000130: 74e2 8d3d a716 6b3e a7b0 7dbc fac1 683e
00000140: 5fcd 7f3e bc5a 5bbe 9acf d33d 7096 4dbb
00000150: 21d3 553d ce09 6cbe 20a0 253d 0ca7 003e
00000160: 0b68 8f3e 647f 69be b19b fbbb 208f 8dbe
00000170: acdc ed3d ac12 1fbe f2fc 723e 9099 023e
00000180: 5d1e 11be 37fe 9a3d 2b36 373e 771e 62bd
00000190: 6810 96be 597f 8a3e e88a 843e a2fd 023e
000001a0: e017 3d3e 2ef2 e73d 6ab5 07be b367 8bbe
000001b0: 6bae 6ebd f5a3 4e3a 8c60 52bc b16c 89bd
000001c0: a555 ec3d 0b20 2ebc 8af9 8f3e b1f5 8e3d
000001d0: e1b5 bc3d 80b0 5ebe 6795 eebc 8561 823d
000001e0: a7a4 d03d 8a83 6cbe 6e0b 4bbe ad6f d1bd
000001f0: a733 2b3e 24da 63be c47c acbd 0a88 4b3e
00000200: e234 a0be dcdf efbc 2106 d2bd ff66 8ebd
00000210: 983d 81be 6b9a cc3d 1195 453e 6e9d f63d
00000220: 8dbd 6dbd 595b 803e e6d1 4ebe d07a 7abe
00000230: b130 01be 5558 75be 5bf5 29be dd56 9ebe
00000240: 0e72 9bbe df32 bcbd 22df 2bbd 5d8b 4abe
00000250: c31b f53d 4a01 47be 0993 25be 79db 93be
00000260: fe23 e7bc 997d 3b3d 4d1e 71bd bf7d b23d
00000270: 37fc 6dbe c434 4ebe f1ab 72be 8d6c 433d
00000280: 59a0 d33d ad42 a1be 40e6 24bd e26a e13d
00000290: 70a1 59be 335e 86bd 0195 f7bd 687c 83bd
000002a0: d1d3 80be 821a cfbd 964d 09be da83 bf3d
000002b0: 99fe 52be 0216 4ebe 4321 81be 4ced 1fbd
000002c0: e425 943d b5c1 803e ed7f 1ebe 86a4 17be
000002d0: 7436 703e 1b6f 833e 731d efbd 4d58 d03d
000002e0: 8381 37be eef9 8bbd 171d 6fbd 23f3 cb3d
000002f0: 141a e13c 2137 8fbe c5d4 96be 4de9 693e
00000300: 3b8d e5bd 42fa 63be 0878 54be 7410 dbbd
00000310: 6e7a fcbd b469 c2bd cdba 85be 36f7 00be
00000320: 27b9 46be 026c 333e eed9 bbbd 56c2 f43d
00000330: 5f23 abbc 4ccd 8dbe bb39 b23d 776c 85be
00000340: fbed 15be b0f1 4f3d 0373 18be e63d a33c
00000350: a9de 4f3e ccb9 7f3e e3a5 853d 3c95 373d
00000360: 075f 1a3e f486 1f3e 0e9b a2bb 817a c5bd
00000370: c4cc 933e 74cb 913e 0159 693d 37cf 843e
00000380: 9a7f 86be 7d2a 61be 1fc4 21be 1334 40be
00000390: 7a44 13be 8e1f 93be db52 853c bf9b 363e
000003a0: 70e7 85be c803 2b3d ebd0 94be dc99 453e
000003b0: 4741 20be 78ba 28be 0563 283e 13db 843e
000003c0: c5ec bebd 391f ecbd 88d0 d33d 040d 043e
000003d0: 455e 173e 14c3 023e 8ba0 b4bd a7c2 5d3e
000003e0: 1b60 303e e4aa fa3d d635 a13d 07fd 83bd
000003f0: 8421 8cbe 53f0 abbd 45cc cebd 5af0 93be
