TJC2025/models/vae_mlp_best.pt (torch, 714180 bytes, 12 tensors)

encoder.encoder.0.weight f4 [256, 64]
00000000: 507d 903d 9650 083e 902c 233d b55d e53c
00000010: 83ad 7fbd f7ad 0bbe 3851 83bc 9ed4 b0bd
00000020: b56b d03d 63ce a1bc e182 13bc 80df 163d
00000030: 9d85 723c 1139 03be bbce aabd 9d30 dab9
00000040: 3042 7e3b 4099 dd3c 9251 a2bd a61a e7bd
00000050: 6aa3 06be 1a0c 7abd 4762 3f3d 3ecb 1bbe
00000060: e620 3cbd f1cb 4bbd 7311 923c 2b37 26be
00000070: cd7c 8ebd 20ea 04be 8ddc 26be 22e7 23be
00000080: 12aa fdbd aada f23b 5b21 b23d 240e 19bd
00000090: 0e6a 12bc 902c 1b3c 72d8 1c3d 4895 9d3c
000000a0: 31da d83d 1730 0ebd dcbb cd3d 5437 25bd
000000b0: 0170 b93d c298 debd 3b72 a7bd ce17 08bd
000000c0: 60c2 d6bd 43d9 7e3d 9529 fd3d d49f 00be
000000d0: 9e2e 7fbc 28cb 383d d951 babd 022c e5bc
000000e0: e428 95bd 86ee f1bd 7a5f fa3d 72b2 9e3d
000000f0: 4f6a 643d 9260 ad3c 2eed b8bd 3a12 28be
00000100: 74db c83d 1760 ca3d 3acd db3d efed 8dbd
00000110: 78a7 873d 8285 983d e0f1 233e da68 f9bc
00000120: 9fd7 afb9 f1a4 15be 2554 303c 50db d3bd
00000130: 3f4c 8d3d abf0 8b3d 3ad2 3b3e fbb6 a9b9
00000140: 50af aabc 6977 b53d 49f7 03be 4e96 763c
00000150: 1416 dabd ae35 343d b5aa 053e cf38 293e
00000160: e826 c83d 4ace a9bd 24ef f5bd f0b6 6a3d
00000170: 94e8 693d 4894 bf3d 2a4b ee3d 1143 193e
00000180: b047 4dbc 41b5 f4bc eb93 b13d db16 f73d
00000190: f2f6 a93d 4e38 a33c d8b0 6abd 44eb b83d
000001a0: a048 8cbd 7e25 463d 303e 4abd b420 dabd
000001b0: d1b8 dcbd c52c a43b ec09 fdbd e806 cbbd
000001c0: e4f1 6cbc 19b3 df3d fe26 9d3d 3c54 d43d
000001d0: f203 e03c 0fb3 23be 0840 8abd 0e02 08be
000001e0: c1f7 c53d af2a b8bc 1898 efbd f70e a8bc
000001f0: e3ef 0e3c ce10 063d 5b6c ad3d 7c75 aebd
00000200: 9407 123d 77b5 72be 847c 50bd 9190 7bbd
00000210: 1a6f 9dbd f8ab 593d b630 39be 5e56 c2bd
00000220: 5c07 e13d 7777 40bc 92dd 31be 48c5 93bd
00000230: ec55 813d 8cae 17bd aa90 81bd 86bf 2abe
00000240: cbfb eebd 25bb 06be 1c3b e8bd 56f1 803d
00000250: bbde b53d 43a3 493c 00c5 13be 5a99 3bbd
00000260: c713 aebd d98d c3bd d3da 293c 842e c03d
00000270: c07a b03d 7a6e 953d 06c1 663d 7acc a1bc
00000280: 6ca0 5c3d fcea b63d c856 f63d 4f3c 263d
00000290: 7d17 af3d bf3c 22bd 2a0d b83d 7851 10bd
000002a0: 1b6f 17bd e764 c7bd be72 2dbe 0b15 ff3c
000002b0: d301 8f3d cf69 683c ed2a aebd 38e1 0ebe
000002c0: ae15 853c dc6d 6abe d850 7cbd 9ae0 efbd
000002d0: a81d d23d 8e65 19be 0b8d 14be 6eed 4ebc
000002e0: 10a5 a4bc 30fe 94bd 411d 0fbc 47d5 6b3d
000002f0: 275c 4e3d 3a07 b53c 6cee 56be e298 b7bc
00000300: b63f b03d 40e6 15be f18c 9b3c 70db c4bd
00000310: 3156 163d 2825 20be bdab a5bc 9fc9 c53c
00000320: 2253 42bd d25c 833d cf0e 5b3d 2abd 9b3d
00000330: bbae 45bd 9c0e ae3b 08c4 11bd ed53 60bc
00000340: 3c74 2d3e d207 853d 95e7 33bd 3d37 2d3d
00000350: d7db f3bb 0e78 d23d 8180 733d 48f7 2b3b
00000360: 6aad ba3d 7906 debc c022 abbb a14c f03d
00000370: a17d d2bd 4534 763d ff87 21be 8544 37bd
00000380: c091 89bd 1524 db3b fc08 ea3d abd3 bb3d
00000390: 49ca b9bc f48b c1bd 890d 20be bcbf febd
000003a0: a39b 003e 405a 253c 6f01 8a3b 5998 e23c
000003b0: 1ca5 493d f1a9 f4bd 9ba0 2dbc 1148 f1bb
000003c0: e1ac 373e 95ac ea3d da46 7fbc bcb2 ae3d
000003d0: 6171 5cbd d372 a5bd 6e3b e83d ae59 4b3e
000003e0: ad54 253e 2418 043c b6fd 1ebe ee2f b53c
000003f0: 28e0 df3d 5938 213e 7945 8d3d 05c1 3b3e
0.070551515 0.13311991 0.03983742 0.027998785 -0.062421333 -0.13640581 -0.016029939 -0.086343035
0.101767935 -0.019751733 -0.009003372 0.03683424 0.014802364 -0.12814738 -0.08340212 -0.0004161642
0.0038796775 0.027050614 -0.079257146 -0.1128438 -0.13148275 -0.061046697 0.046724584 -0.1521425
-0.045929812 -0.04975504 0.017830586 -0.16231982 -0.069573976 -0.12979937 -0.16295071 -0.16006139
-0.12385954 0.0074113207 0.08697768 -0.037367 -0.008936418 0.009471074 0.038292356 0.019236222
0.10588492 -0.03471383 0.10045597 -0.040335968 0.09054566 -0.1086898 -0.081760846 -0.033225827
-0.10486293 0.062218916 0.12361447 -0.1256097 -0.015575079 0.04511562 -0.090976425 -0.027975086
-0.0728319 -0.11813073 0.12225242 0.077488795 0.055765446 0.021164212 -0.090296134 -0.16413203
0.09807482 0.09881609 0.10732503 -0.06930148 0.06623739 0.074473396 0.16010237 -0.030445505
-0.0003353925 -0.14613701 0.010762249 -0.10344565 0.068993084 0.06833013 0.18341914 -0.00032370523
-0.020835549 0.08860666 -0.128873 0.015050484 -0.10648742 0.043996505 0.13053401 0.16525577
0.09773046 -0.082913 -0.12008503 0.05730337 0.05710657 0.09354454 0.1163543 0.1496699
-0.012529299 -0.029871585 0.08670791 0.12064906 0.08299054 0.01992431 -0.057297558 0.09029248
-0.068497896 0.0483756 -0.049375713 -0.10650769 -0.107774384 0.0050102198 -0.12355408 -0.09913427
-0.014461968 0.10922832 0.07673453 0.10367629 0.027345631 -0.15986274 -0.06750494 -0.13282034
0.09666396 -0.02248129 -0.116989315 -0.020514948 0.008724186 0.03273087 0.08467933 -0.08518502
0.03565176 -0.23702036 -0.050899997 -0.061417166 -0.076872066 0.053142518 -0.18084988 -0.094891295
0.10987732 -0.011747233 -0.17369679 -0.07215363 0.063152164 -0.037031695 -0.063264206 -0.16674623
-0.116691194 -0.13157327 -0.11339399 0.06296031 0.08880373 0.012306991 -0.14430618 -0.045800544
-0.08499866 -0.0954854 0.010367113 0.09383872 0.08617163 0.07296462 0.056336425 -0.019750822
0.053863928 0.089315385 0.12028271 0.04058486 0.08549402 -0.039608713 0.08986886 -0.035233945
-0.036971193 -0.097360425 -0.16938302 0.031137964 0.0698277 0.014185383 -0.08504281 -0.13953102
0.01624569 -0.2289347 -0.061600536 -0.11712761 0.10259563 -0.14980146 -0.14506929 -0.01262985
-0.02009824 -0.07275045 -0.008735002 0.057576444 0.050380852 0.022098172 -0.20989388 -0.022411767
0.08605902 -0.14638615 0.018988105 -0.09612167 0.036703292 -0.15639174 -0.020223493 0.024143992
-0.047442563 0.064141884 0.05348092 0.076044396 -0.04826234 0.0053118 -0.03558734 -0.013691884
0.16938871 0.06495632 -0.043922026 0.042289007 -0.0074419784 0.10276805 0.059448723 0.002623992
0.09115107 -0.027102696 -0.0052226484 0.11733366 -0.10277868 0.06010844 -0.15774535 -0.04474308
-0.06717253 0.006687651 0.11427495 0.09171232 -0.022679465 -0.09450522 -0.15630163 -0.12438914
0.1255937 0.010092318 0.0042115967 0.027660536 0.049229726 -0.11946476 -0.010597373 -0.0073633273
0.17937042 0.11458699 -0.015580857 0.085301846 -0.053819064 -0.080785416 0.1133946 0.19858429
0.16145582 0.008062396 -0.1552647 0.022117581 0.10931426 0.15744151 0.068980165 0.1833535

encoder.encoder.0.bias f4 [256]
00000000: cd67 f53d 8574 d1bd 7251 993d 20b4 3a3d
00000010: 7fe4 2b3b 297c 88bd b49a 143e d03c 6fbd
00000020: c575 6f3d 3719 993d 595c a9bd 85e0 aabd
00000030: 0071 973d 4c41 aabc c8c1 8e3d 7c7d 11bd
00000040: b4a8 523d 7571 e8bc 3781 043e 3920 dcbd
00000050: c3a2 d3bd adde 26bc 7077 8e3d 24cf 283d
00000060: fd30 4ebd de1b dabd 4cf9 803d 4e29 a53d
00000070: 3380 0fbd 45d5 dd3d be6e 09bd 5b10 533d
00000080: 4cd4 e0bd 0f37 283d fa0a 983c 6888 513d
00000090: 3b5f f53b 0376 08bd a635 7ebd a0d3 adbd
000000a0: 6cf5 b33d 98d1 9bbd b4c3 a7bd e6cc 3abd
000000b0: 792c 043e 68e5 5fbd 9c8c de3c 74e1 e03c
000000c0: be80 553d 8be7 933b f679 32bd d84b 5c3d
000000d0: b7c4 cf3d 8668 a43d 5a3e 43bd c148 55bd
000000e0: 061c 24bc 531d 7dbd 50df 913d 7375 85bd
000000f0: bc24 b63d b2bf 1c3d ece2 5c3d 6824 063e
00000100: 4fab 533d 2437 dcbd 3a87 f9ba c3cb 053e
00000110: 7a06 bfbd 4d41 c63d a019 42bd 842a 4bbd
00000120: 94e9 a83d 491d aa3d 51d3 9c3d 51bf 57bc
00000130: 2d31 23bd b602 cdb9 257f 0a3e 5375 593d
00000140: 1971 463d 9652 bc3c 139c 1a3d 4fbb 31bd
00000150: 26de 013e c943 cd3d f90a d63d aa7b 2fbd
00000160: 8374 843d d847 183d 0c54 f4bc 705f 82bd
00000170: 8961 41bc 284b bb3d 137e 18be 59e1 b73c
00000180: fff9 933c 1434 ea3d 79ba 863b e88f d43d
00000190: 6d4a e33d ad31 28bd 5d2b 1a3d 6c37 f43d
000001a0: 48b5 78bd f006 453d 915b d4bd 233e fbbd
000001b0: c1ca 9cbd 941a bc3d fe96 a73d 9ae5 cdbd
000001c0: 9cea 973d 5494 cc3d ed17 55bc 3288 0f3d
000001d0: 7b37 653d 95f0 fdbd afc3 d6bd e541 9c3c
000001e0: 451a 58bc 0c10 50bc f1bd cd3d 91b2 0e3e
000001f0: e652 6fbc c15e 9c3d 090e ed3d d67f c8bc
00000200: 8035 653d 573f a73d ed0c d23d 8fc3 0c3d
00000210: 6435 bebd c6c6 b4bd b6d9 04bd ae32 f7bc
00000220: cc92 afbd 0c2c 70bd 4cfc 493d f26e 35bd
00000230: f776 08be a149 28bc d5d1 bc3d 597c 3dbb
00000240: 1272 ffbc deae 9d3c 8e77 503c 7e6b db3d
00000250: 5afb 423d bdea 9f3d 6045 053e 9dc0 0d3b
00000260: c25a 863c a1c8 eb3d a2b2 f43b 671e 15be
00000270: 931b 85bc 6f7d 083e 5f61 88bd 0f35 703d
00000280: 74f8 583d 528a e63b 342b 823b 6f69 203d
00000290: 1a27 05bc 86dc cf3d 8acf a03d a34a dc3d
000002a0: 4bde c13b 65f4 d5bd 5fcf 49ba ab4b a03d
000002b0: f306 ccbd 0919 0cbc 33c6 913d 7b49 103d
000002c0: 881f 363d 1b64 35bd 62a1 fabd 7b2b 943d
000002d0: 135b 2fbd b2c8 283d ceab 98bb b228 dabd
000002e0: 48bc 1d3d 4d51 16bd e0a0 9abd 9cef 05be
000002f0: d959 9e3c 5a74 033d cb26 a73d b5b4 adbd
00000300: ef37 a63d 70de 9ebd fc2d dc3d 60a6 b7bd
00000310: 727d a3bd 046f 003d 8de4 ac3d b18c 0b3e
00000320: 7ee3 3cbd 101f ba3d e80a d43d 3e25 343d
00000330: ccf5 a5bc a8c8 11bc c01c b6bd 03ad f3bd
00000340: 5bfb e9bb 1b7d 45bb 78b7 eabc 7170 0bbd
00000350: a434 d83d a86a 123d 1094 d9bd 8677 37bd
00000360: f58c a63c 8b62 98bc fca9 ad3d 15e1 bd3d
00000370: 8bb5 8fbd 93eb 883d faf0 c33d 2a4d d13d
00000380: 92ce e13d 8042 e43d 6e71 073d d333 b6bc
00000390: 9aba 7a3d 386e e73a f2bb 52bd c5bc 403d
000003a0: fb91 0dbc e5a5 803c 9c74 923d 4eae 903d
000003b0: 20a7 92bd 58c0 a43d f336 acbd 3ac1 d1bd
000003c0: aa1a 0ebd 7537 adbd a73b 4e3d 6357 d4bd
000003d0: 0c5f 40bc 312e 41bd 9aa5 1ebd 9a0c 833c
000003e0: db54 833b f0bf 8dbc bd71 95bd bd0f be3d
000003f0: 8fc4 14be 869d e23d 3c9d 033e a61c a3b9
0.11982689 -0.102273025 0.074862376 0.045581937 0.0026228724 -0.06664307 0.1451214 -0.058407605
0.058461923 0.074755125 -0.08269567 -0.08343605 0.073946 -0.02078309 0.069705546 -0.03552006
0.05143042 -0.028374413 0.12939917 -0.107483335 -0.10333779 -0.010184926 0.06956375 0.04121317
-0.050339688 -0.106498465 0.062975496 0.08064519 -0.03503437 0.108316936 -0.033552878 0.05152927
-0.109779924 0.041068133 0.018559922 0.051155478 0.007488159 -0.03331567 -0.062062882 -0.0848763
0.08787045 -0.07608336 -0.08191624 -0.045605563 0.1290759 -0.05466214 0.027166657 0.027451254
0.05212473 0.004513686 -0.043573342 0.053783268 0.10144942 0.08027749 -0.047666885 -0.052071337
-0.010016447 -0.061795544 0.071226716 -0.06516542 0.08893725 0.038268752 0.053927347 0.13099825
0.051677044 -0.10752705 -0.0019037493 0.1306601 -0.09327407 0.09680424 -0.04738772 -0.049601093
0.082476765 0.08306367 0.07657493 -0.013168172 -0.03984182 -0.00039102667 0.13525064 0.053090405
0.048447702 0.022988599 0.0377465 -0.043391522 0.12682399 0.100226946 0.104513116 -0.042842545
0.06467535 0.03717789 -0.029825233 -0.063658595 -0.011803039 0.09145194 -0.14891843 0.022446321
0.018063543 0.11435714 0.0041115847 0.103790104 0.1109818 -0.041063 0.03763901 0.119246334
-0.06071976 0.04810232 -0.103690274 -0.12267711 -0.0765586 0.09184757 0.08183096 -0.10053559
0.07417795 0.09989229 -0.013006193 0.035041995 0.055961113 -0.12399403 -0.104865424 0.01907439
-0.013189857 -0.012699138 0.10045994 0.13935305 -0.014607167 0.076352604 0.115749426 -0.02447502
0.055959225 0.08166378 0.10256372 0.034366187 -0.09287527 -0.088269755 -0.032434188 -0.030175533
-0.08572921 -0.058635756 0.049312875 -0.04429526 -0.13326631 -0.010271461 0.0921971 -0.0028913228
-0.031182323 0.019248422 0.012723817 0.10713862 0.04760299 0.07808445 0.13014746 0.00216297
0.016400699 0.11512876 0.0074675838 -0.14562379 -0.0162485 0.13329099 -0.06659197 0.05864435
0.05297132 0.007035532 0.0039724354 0.03916305 -0.008126998 0.101494834 0.07852085 0.10756423
0.005916392 -0.10447005 -0.0007698442 0.078269325 -0.09962263 -0.008550891 0.071178816 0.035226326
0.044463664 -0.04428492 -0.122378126 0.07234856 -0.042811465 0.041207023 -0.0046591526 -0.10652293
0.038509637 -0.03669863 -0.07550216 -0.13079685 0.019329952 0.032093383 0.08161696 -0.08481733
0.08116137 -0.0775727 0.10750958 -0.089672804 -0.07982911 0.031355873 0.0844203 0.13627888
-0.04611539 0.09087956 0.10353643 0.04398083 -0.020258807 -0.008897938 -0.088922024 -0.11898234
-0.0071405596 -0.0030134383 -0.028651938 -0.03404278 0.105569154 0.035746247 -0.10623944 -0.04479172
0.020330885 -0.018601676 0.084796876 0.092714466 -0.070170484 0.06685557 0.09567447 0.10219796
0.11025728 0.11145496 0.03306716 -0.022241509 0.061213113 0.0017656749 -0.05144877 0.047055025
-0.0086407615 0.015704105 0.07151148 0.07064496 -0.07160783 0.08044499 -0.08408918 -0.10241933
-0.034693398 -0.08457843 0.050349858 -0.1036823 -0.011741411 -0.047163192 -0.03873215 0.01599722
0.0040079183 -0.017303437 -0.072970845 0.092803456 -0.14528106 0.110652015 0.12852949 -0.00031111127

encoder.encoder.2.weight f4 [256, 256]
00000000: eb4a e93a 7fe4 64bd 29d9 913a 13d6 b73c
00000010: 64b4 4fbd b4c5 cebc 1a19 83bd a9f5 143d
00000020: 4f97 c5bc 4558 1fbc 6a28 753d c307 e53c
00000030: d486 28bd f16f 123d f480 57bd 4e7f 20bc
00000040: 536b a13d 6a41 26bd d2cc be3b d9ad feba
00000050: f165 473d fc8d 833d 8aa4 0f3d 2cdc bfbb
00000060: 4b8f 183d bf5a e13c 99f9 b2bc 627c 473d
00000070: 8a08 8fbd 0a06 28bc 9a74 92bd 72d4 fabc
00000080: 2eb9 213c dd81 0c3d c5db 51bc f82a 52bd
00000090: e157 1bbd 16c7 2fbb 1e38 b23c 8c89 1abd
000000a0: 57c4 8cbd 24a4 97bc eb06 2e3d 1961 1b3d
000000b0: b2f8 51bd da16 73bc 6fa7 4cbd 954e 223d
000000c0: 07e6 79bc eb88 9cbc 0344 48bc 2339 72bd
000000d0: 0b16 15bd 9872 3dbd 447c 0a3c 89c4 433d
000000e0: d677 9e3c 6887 b03c 4b25 b23b c82d a8bd
000000f0: d873 dbbb 6422 083c 324a 86bd b9f2 59bc
00000100: 254b b8bd 4729 e63c d26d 75bc 6c82 18bd
00000110: 5aeb 05bd cd6f c2bc d045 17bd 6cea 083c
00000120: 6494 063a 9194 3abd c194 473d 1bdc 4ebd
00000130: b81e c93c 4750 833d b395 a8bc 3380 18bb
00000140: a591 dabb c4f7 593d d083 5fbd 91ce d2bc
00000150: 9dc0 9a3c 1147 10bd 83fb 2cbd a922 92bd
00000160: 6b93 8ebb 764b c03c 6eb2 bf3c 9c51 30bd
00000170: a9e8 ec3c f007 b83c 1386 6a3d 1794 393d
00000180: e0a3 efbc 416f 8ebd 7a02 563c ff53 ad3c
00000190: 283d 0fbb e486 9cbd 72fa 4cbd 8114 183c
000001a0: 0fbc 6a3d 6135 e03c 057b 67bd 052b 4c3d
000001b0: 6acd 93bc ee82 abbc 6072 c4bc bf5f a7bd
000001c0: 5c38 293d f130 033d 8cfd 91bd 569c 8a3c
000001d0: 852d 9dbd 64af 773c 8083 48bd f6eb 963b
000001e0: 7646 5f3c 63fb 2dbd a714 79bd fbba 19bd
000001f0: 338f af3c 30c7 b93c 66aa 50bd 36cb 533d
00000200: 3c39 3bbb bba8 a8bc de66 07bd 5806 223d
00000210: 31b3 55bd ee75 51bd 765f 79bd 97b2 383d
00000220: c645 43bb 5a3a c23c 0cb1 103d 135d cb3c
00000230: a6ea 1ebd fa57 86bd 89bc 67bd e1fe 40bd
00000240: 7dfa 32bc 27db ae3c 3aa0 f53c 7b7a 073c
00000250: 627c 53bd bd39 e23c c203 a4bd 1aa2 d53c
00000260: db94 21bd 8041 c9bc d0be babb e789 943c
00000270: a4e3 0bbd 7de2 b0bb 9f7f e73a 59ad b6bb
00000280: d440 90bd b5f7 513c 06a9 363d b7c7 1e3d
00000290: c69c ffbc 887b 06bd 9471 0bbd a23e 41bd
000002a0: fc09 3bbd 4c9c 873d 560c a2bc 35bd 9a3d
000002b0: 25b1 853d 31e6 343c 7300 64bd 9311 203d
000002c0: 4a80 723c 0456 21bb 2dbd b83c 421c 233d
000002d0: de95 d23c a320 70bd d388 9d39 d96e 9c3d
000002e0: a2b0 95bc 2abb 243d d3b2 4f3d da5c 47bd
000002f0: 45d1 dcbc 6748 55bc 67d9 adbb 1754 3fbc
00000300: 8400 2c3d 1c0d 63bb f585 de3a d41f 873c
00000310: dd65 f3bc 42c6 0ebd 7e9e 3c3c fa5e 4a3b
00000320: 9166 163d daa1 50bc 3724 ce3c d7bc 5a3b
00000330: 6d0b f8bc 4164 d03c 4cc1 41bb 8f8a 8c3c
00000340: 04e0 40bd 0871 303c 6ec8 95bd cee1 48bd
00000350: 7ab9 68bd 65f2 ce3c 98e9 1b3d 895c 46bd
00000360: f6af 03bd c581 57bc 21ff a93b 4da4 f73b
00000370: ba91 90bd fc8a 89bd 06d0 30bb 1352 af3c
00000380: a746 5fbd 288c 3d3d 8def 8abb d4ba 66bd
00000390: e840 4ebd 4da1 80bd 83e2 913d 4dc8 9abd
000003a0: 0f88 05bb 0632 d4bc 3c54 013d df3f 15bd
000003b0: 9482 403c f58f 563d aa2f b63c cd8b a53c
000003c0: 2d6b 9f3d 6bf9 2b3d b49a e0bc a9bc 463c
000003d0: 499e 5bbc 14c4 f4bc 2420 aebc 3f58 46bd
000003e0: ad81 d0ba 440c 78bd 3970 703b eec6 35bc
000003f0: 034a 5cbc 6a64 9bbc 1165 47bd c86d 46bc
0.0017798817 -0.055881973 0.0011127341 0.022440946 -0.050709143 -0.025240757 -0.06401272 0.036367092
-0.024120001 -0.009725635 0.059852995 0.027957803 -0.041144207 0.035751287 -0.052613214 -0.009795977
0.078817986 -0.040589727 0.0058227563 -0.0019430473 0.048681203 0.06423566 0.035069026 -0.005855104
0.03724603 0.027509091 -0.021847533 0.048702605 -0.069840506 -0.010255346 -0.07151146 -0.03061888
0.00987081 0.034303535 -0.012808745 -0.05131051 -0.037925605 -0.0026821545 0.021755274 -0.03772883
-0.06873386 -0.018510886 0.042487066 0.037934396 -0.051262565 -0.014836991 -0.049964365 0.039625723
-0.015252597 -0.019108256 -0.0122232465 -0.05913652 -0.036397975 -0.046251863 0.008452479 0.047794852
0.019344252 0.021548942 0.0054365746 -0.08211857 -0.0066971593 0.008308981 -0.065571204 -0.0133024985
-0.08998708 0.028095854 -0.0149797965 -0.037233755 -0.032695152 -0.023734951 -0.036931813 0.008356672
0.0005133806 -0.04555184 0.048725847 -0.050502878 0.02455078 0.06411796 -0.020579195 -0.0023269772
-0.006670194 0.053214803 -0.054569066 -0.025733264 0.018890673 -0.035224024 -0.042232048 -0.07135517
-0.0043510697 0.023473483 0.023400512 -0.04304658 0.028919535 0.022464722 0.05725677 0.045307245
-0.029252946 -0.06954814 0.013062114 0.021158217 -0.002185652 -0.07642916 -0.05004353 0.009282232
0.057308253 0.027369203 -0.056513805 0.049845714 -0.018042285 -0.020936456 -0.02398032 -0.08172559
0.041313514 0.032029096 -0.07128438 0.01692025 -0.07674698 0.0151175 -0.048953533 0.0046057655
0.013627639 -0.04247607 -0.06081071 -0.037531834 0.021430587 0.022677988 -0.050943755 0.05170747
-0.002856805 -0.02058827 -0.033057086 0.03955683 -0.052172843 -0.051137857 -0.060882054 0.04509219
-0.0029796227 0.023709465 0.035325095 0.024824655 -0.038797997 -0.06559749 -0.056576286 -0.04711807
-0.010923979 0.021344734 0.029983629 0.008268948 -0.051632293 0.027615422 -0.08008529 0.026078273
-0.0394486 -0.024567366 -0.005699016 0.018132163 -0.034152642 -0.0053980933 0.0017661935 -0.005574864
-0.07043615 0.012815406 0.044594787 0.03876468 -0.031202685 -0.032832652 -0.034043863 -0.047178872
-0.04566382 0.06621608 -0.019781273 0.075556196 0.06527928 0.01104121 -0.05566449 0.03907926
0.014801094 -0.002461792 0.022551144 0.03982187 0.025706228 -0.058624875 0.00030047316 0.0763833
-0.018272702 0.040217556 0.05070765 -0.048672535 -0.026955256 -0.01301775 -0.0053054574 -0.011677763
0.04199268 -0.0034645265 0.0016977178 0.016494669 -0.029711658 -0.034857042 0.011512397 0.0030879364
0.03671891 -0.012733901 0.025163753 0.0033376717 -0.030278886 0.02543843 -0.0029564677 0.017155914
-0.047088638 0.010769136 -0.073136196 -0.04904347 -0.05681751 0.025262067 0.03806457 -0.048428092
-0.03215023 -0.013153498 0.0051878844 0.007557428 -0.07059045 -0.06715962 -0.002697946 0.02140144
-0.05451074 0.04627624 -0.0042399825 -0.056330517 -0.05035487 -0.06280766 0.07123282 -0.075577356
-0.0020375287 -0.02590276 0.031574473 -0.036437865 0.011749882 0.052383382 0.022239525 0.020208264
0.07784114 0.04198591 -0.027417518 0.012129941 -0.013404437 -0.029878654 -0.02125556 -0.048424
-0.0015907787 -0.060558572 0.0036687984 -0.011094792 -0.01344538 -0.01896878 -0.04868037 -0.012111135

encoder.encoder.2.bias f4 [256]
00000000: 0020 4bbd a612 663c db6a 2ebd 0d4d cb3c
00000010: 5bd9 26bd 1af9 82bd 6bf5 133d a749 fe3c
00000020: bea2 003d 5555 853d e686 34bd c783 e4bc
00000030: 6725 8dbb 2ff0 903b 9b71 59bd 30f9 97bc
00000040: 8694 a73d 3028 353d 1f76 6e3a 4b0c 133d
00000050: 0e3c 3dbc 824d 293c 98fa 02bd 7609 0fbc
00000060: 0431 403d c618 6c3c 52cb aa3c bbb7 d939
00000070: ad3e 8a3d facb 293d 7627 a53d 379f b73d
00000080: 3d58 533d 4cfa 60bd a2ad a93d c888 ea3c
00000090: 6581 81bd 2a46 853b ae2f b6bc 8a6e 95bd
000000a0: 7a4d ae3c 2a09 2d3d 4fb7 c8bc e96b 2c3d
000000b0: ee58 febc 0592 a03d 0595 01bc ae0e 6abd
000000c0: ce80 f6bc e452 f2bc f3e7 203c 6720 393c
000000d0: 8ea5 46bd 0755 e73c 8345 cd3c 5b9a bc3d
000000e0: be79 abbd e505 4a3d 43b6 f73b 4d31 923b
000000f0: 7148 68bd f34f b43b 1261 1ebc 8cff 97bd
00000100: 6411 95bd f258 86bc 67cf fd3c bd6f 13bd
00000110: 6239 ff3c 679a 893b 57b0 c93c 3f02 b139
00000120: 408c 433d d1e7 d5bb 0283 d93b d583 75bd
00000130: 0ee6 0e3d afc7 1a3c ded5 ba3c 4c17 c53c
00000140: ebf8 b33c e278 1d3d 02ae 2cbd 1cd5 6fbd
00000150: 9384 523c 0703 96bc d9bc cbbd c9dd 84bb
00000160: a865 5fbd 80f8 cbbd 20d6 8dbb b070 47bd
00000170: 2db4 5f3b 2693 5b3d a445 d4ba fd8a 003e
00000180: 2c55 943d adad 65bd 80f6 1b3d e9f5 9a3d
00000190: 9caa 023d 3fde 89bd 1586 5a3d d211 383a
000001a0: afc0 35bd fe59 bebd 51b8 973c 3bc1 3f3d
000001b0: ba67 113d 1eed 07bd 4e9e 99bd 04c0 1a3d
000001c0: 5d14 903c 7372 9cbd bcf4 cfbc 0f25 8ebc
000001d0: 5c8e b83b cea8 2ebd 3747 b1bd aae8 cf3c
000001e0: aecd 153d 6921 91bd c529 20bd e1d5 eb3c
000001f0: ee68 963d fe7a a43d 7b84 7f39 d12b 583d
00000200: c5e5 2e3b 571b 2cbd 09a3 0f3d 437f 6fbd
00000210: 194f 723c b814 98bb 0a0c e53c 911e 35bc
00000220: 2503 82bd 3bbc 053d 65cd 8abd 49a6 37bc
00000230: ea47 febc f178 873d 4712 513c fc7f 443d
00000240: 2255 8d3d a80f 24bd 3d33 7bbd 76e4 c03d
00000250: 9b67 95bb 0eec 2bbd cccb 83bd 9411 5b3d
00000260: 89ba 7a3d b1b0 813d d44f 933c 4649 7cbd
00000270: 9816 03bd 648e 8f3c 951a dd3c 5897 963d
00000280: 83bc 33bc f16c 8fbc 2c41 04bc 9d0f c13b
00000290: 476a 303d 2977 2b3d 819a 2abd d878 adbd
000002a0: 3653 013c 7e07 9abd 76d7 5c3d e4de a53c
000002b0: 141d 343d 98ad ba3b 94f8 2fbd ed4e 853c
000002c0: 2130 6abb f51c 89bb 4e32 0e3d e71f 63bd
000002d0: 6ddc 34bc 84d2 3e3b 88b5 093c a8d9 173d
000002e0: d75a 843d edc0 8ebc c2b9 abbd 851f 6cbd
000002f0: d792 183d ecb4 53bd 6616 95bd 8b76 81bd
00000300: b03b 553d 613c 88bd 8c8f d8bc f3be 5c3b
00000310: c2f8 2b3d 036c 17bd 8a00 f83b b20e e73c
00000320: 02d5 dc3c 6fb2 063c 85ca 333d f93c 29bd
00000330: a279 babd 1067 2b3c 735c 76bd 2ece acbc
00000340: 80c5 593d e588 843d 7b66 75bd b330 afbc
00000350: d172 393d 5525 a3bd 4a98 f6bc 8e80 3d3d
00000360: bc20 5d3d 52b5 b1bd 3525 43bd 8f34 c5bc
00000370: 4327 93bd d5d3 043d c5e7 acbd 72bd 27bd
00000380: 9d75 59ba 1eda d33c 1f4c 09bd e6f7 10bc
00000390: f709 5f3b 3d93 423c 9bdb 2d3d 6d8d e4bc
000003a0: 0b6e bfbc c6b1 2e3c 18a9 b83d 5e32 893c
000003b0: 76b0 23bc fad8 133c fb0a 553d 0c10 87bd
000003c0: 203e 163d 5353 b0bc 2db3 973d 686e 6b3c
000003d0: 4167 59bd 818c 02bd 97b4 bfbd a9ef 1f3d
000003e0: 4261 f73c c68a 98bd ed90 073d a226 75bd
000003f0: 9336 803d 02e1 a1bc 74cd 25bd bdf1 f2bb
-0.049591064 0.014042532 -0.042582374 0.024817014 -0.04073463 -0.063951686 0.03612272 0.03104098
0.031405203 0.065104164 -0.04407396 -0.027894868 -0.004307437 0.0044231634 -0.05308686 -0.018551439
0.081826255 0.04422778 0.0009096581 0.035900395 -0.011549963 0.010333421 -0.031977266 -0.008730283
0.046921745 0.014410203 0.020848904 0.00041526355 0.06750236 0.041454293 0.08064167 0.08965915
0.051597822 -0.0549262 0.08285071 0.028629676 -0.06323508 0.004067202 -0.022239532 -0.07296474
0.021277178 0.042245068 -0.02450147 0.0420951 -0.031048264 0.07840351 -0.007909064 -0.057142906
-0.030090716 -0.029580541 0.009820926 0.011299229 -0.04849773 0.028238786 0.02505756 0.092091285
-0.0837283 0.049322028 0.007559569 0.0044614435 -0.05670971 0.0055026948 -0.009666698 -0.074217886
-0.072787076 -0.016399834 0.030982686 -0.035995234 0.031155292 0.0041993144 0.024620218 0.00033761744
0.047741175 -0.006527879 0.006637932 -0.059940178 0.034887366 0.009447022 0.022807058 0.02405896
0.02196928 0.03844536 -0.042158134 -0.058552846 0.012848991 -0.01831199 -0.09948129 -0.004054759
-0.054540306 -0.09959507 -0.004328504 -0.04869145 0.0034134493 0.05360713 -0.0016195071 0.1255302
0.07242808 -0.056073833 0.038076878 0.07566435 0.031900987 -0.06731843 0.053350527 0.00070216984
-0.04437321 -0.092945084 0.018520506 0.04681514 0.035499312 -0.033185117 -0.07500897 0.037780777
0.017587835 -0.07639017 -0.025385253 -0.017351655 0.005632205 -0.042641453 -0.08656161 0.025379498
0.036573105 -0.070864506 -0.039102335 0.028788509 0.073442325 0.080312714 0.00024368048 0.05277616
0.0026687246 -0.04201826 0.03506759 -0.058470976 0.014789366 -0.0046411417 0.027959842 -0.011054651
-0.06348256 0.032650214 -0.06777457 -0.011209079 -0.03104015 0.066148646 0.012760705 0.047973618
0.069010034 -0.040053993 -0.06132816 0.094185755 -0.00455947 -0.041973166 -0.064353555 0.05348356
0.06121305 0.06332529 0.017982401 -0.061593316 -0.03200397 0.017523952 0.026990214 0.07353085
-0.010970238 -0.017508002 -0.008072179 0.005891754 0.043070104 0.041861687 -0.041651253 -0.08470315
0.007893374 -0.0752096 0.053916417 0.020247884 0.043973044 0.0056969635 -0.042961672 0.016272986
-0.0035734253 -0.00418436 0.034715943 -0.055450346 -0.011038882 0.0029117176 0.008405097 0.037072808
0.06462639 -0.017425979 -0.0838504 -0.057647247 0.037249412 -0.051686212 -0.07279663 -0.063214384
0.052058876 -0.06652141 -0.026435636 0.003368315 0.04198528 -0.036968242 0.0075684236 0.02820525
0.026957039 0.008221253 0.04389431 -0.041317914 -0.09105231 0.010461584 -0.06014676 -0.021094408
0.053166866 0.06471423 -0.059912186 -0.021385526 0.045275513 -0.07966105 -0.030101914 0.046265177
0.053986296 -0.08677162 -0.047642905 -0.024072913 -0.07185223 0.03242858 -0.08442644 -0.040952154
-0.0008295419 0.025860842 -0.03351986 -0.008848166 0.003403304 0.011875925 0.04244576 -0.027899468
-0.023367902 0.010662502 0.09016627 0.01674765 -0.009990802 0.009023899 0.052012425 -0.065948576
0.03668034 -0.021524107 0.07407222 0.014369585 -0.053076986 -0.031872276 -0.09360617 0.039046917
0.030197743 -0.07448344 0.033097196 -0.059851296 0.06260409 -0.019760612 -0.04047914 -0.0074140714

encoder.encoder.4.weight f4 [32, 256]
00000000: 070e 253d a807 413d af82 083d 0b34 563d
00000010: a82c 753a acf0 693c 21b3 483d 93e2 843d
00000020: 8305 d8bc 5e00 b6bc 3e69 96bc cb0c 14bd
00000030: 8a5e 1839 f27d 7f3b e507 4dbd dd6d 19bb
00000040: 1793 1bbd e66b 8b3c e1cf 3c3d dc96 acbb
00000050: 3057 c1bd b8e6 613a d4ee dabc e10c 4d3d
00000060: 8b8c 11bb 68d5 b63c 9964 263d fd66 613d
00000070: b573 5d3c 376f 31bd 75bf 28bb dac0 11bd
00000080: 8715 07bb bf20 453c 1b4d afbc 3835 2bbd
00000090: ed47 593b e95f 05bd a417 393d bd84 e93c
000000a0: d4f7 50bd 05fe f23c a62d 053c 41b2 65bd
000000b0: 9995 f0bd 5cf1 593c 9dd4 b83c 1f33 94bc
000000c0: 4e42 b53c 40d9 b43b 309c fdbc 77b0 20bd
000000d0: 1656 fdbc bddd 6a3c ef95 ff3b 06df 163d
000000e0: 55af 053d 9103 dbbb 3180 303c a33d a63c
000000f0: 07f6 51bb 11ff b8bc 51a1 c9bc d7e2 1bbd
00000100: 1e47 35bd 7538 54bd 9ed0 113d 0ad1 cb3d
00000110: b9f5 26bd 8db9 49bc 0acb ec3c 207d ffbc
00000120: af4f bcbc 0cf6 a8bc 28d1 ef3b ec04 1ebd
00000130: a56e 0e3d 7e5c 42bd ac6a a23c d33e 193c
00000140: 6146 d2bc 2014 643d 01d7 183d b254 aebc
00000150: d780 bebb da68 e2bc 26af b63c 5c25 d6bc
00000160: bf9c 9d3c 20e2 7d3c b1ed 173b fd24 34bd
00000170: ca2f 50bd 4bab 5abc ca68 35bc 19a9 e6bc
00000180: 97f4 45bd e789 a73c 1e6e ae3c 3848 b6bc
00000190: 50f2 923c 5e4a a73b a448 cfbc 2d85 3abd
000001a0: 321d dc3c f632 efbc 195d 7a3b b92b 50bd
000001b0: 75cf d93c b57c 05bd a8b6 15bd ffe5 6b3b
000001c0: fce1 1ebc 5bde a43c 953e de3c 0845 b3bc
000001d0: f418 763d da91 8e3c 8bad 46bc bf7d 013c
000001e0: c180 8e3b 24bf 07bd ea5e 85bc dde1 653c
000001f0: 9fb5 cd3c fb1e 5abc c065 a53d 17aa e23c
00000200: 210d 3f3d 9872 20bc bbe7 e0bc 17eb 0fbd
00000210: c335 df3b f003 07bd 9dcd e4bc 3cd1 2e3d
00000220: f82b 12bd cdd4 6cbc 7313 97bb 0ea6 c1bb
00000230: e289 65bc 3af5 f1bb 9a76 a53c 5bd3 e23c
00000240: ebcc fd3c 6e4c 0abd 5131 613d 8796 083b
00000250: 1a0b 453c 9f38 90bc 576c 14ba 09d7 213c
00000260: 1f8b 7eba 4720 9b3c 29b4 143b 6904 333d
00000270: 611b 20bd 29b5 00bd 2ace 6dbd dc9b 263a
00000280: 56cd c93b 25f5 f63c 509b 1b3d 60a7 863c
00000290: baca 1a3c b389 173d eb4e 4cbd 4b5b 963d
000002a0: 0d78 a8bc 70de 9a3c 2948 0f3d 035e 073b
000002b0: 2ed4 00bc 27dd 773d 424e 50bc 423b 0ebd
000002c0: 16e2 1abb 3bb0 50bd 60af 05bd e515 51bd
000002d0: c627 2bbd 5202 763c 2d1e 7bbd 60b0 f7bc
000002e0: 8bca 81bc 4ec1 c1bc c068 4dbd 25b7 47bd
000002f0: 840d fc3c 4257 1cbd d8a7 f2ba 3a30 103d
00000300: 19f0 b3bc 41d3 913d 6d26 8cbd d9ca 2c3c
00000310: b7d9 bdbb 09a1 b23c 509f edbc f58a 87bc
00000320: d8b0 9dbc 92df 21bd 5e83 f43c bea1 c63b
00000330: e278 e03b e99e 0fbd 60bc ec3c 8168 65bd
00000340: c521 753d dcce 27bc 60e5 0a3d c6d1 bc3b
00000350: 444d 523c 4048 503d 52b9 4f3d 29ae 1ebd
00000360: c9fe ba3c 4b1a 403d 56ba 2dbb 523a 083c
00000370: 9d86 0cbd b16e b93c 026c 993c ee13 d2bc
00000380: 22dd c2bc 755a b0bc eaed 7fbd 6884 f53c
00000390: d930 5cbd 58e3 323d 510d 65bd 5da8 9c3c
000003a0: c351 743b 1105 073d edee 3e3c d41f 42bc
000003b0: b6fd 323d 82a7 9cbd 593a 49bd 91d6 263d
000003c0: bac7 abba 99ea 2ebd 0a65 863d d55b 333b
000003d0: 9816 913d 4f32 0fbd 62e0 81bd 2a89 163d
000003e0: 8fce a3bc 4b27 b13c 145a 333c a8d0 373d
000003f0: 953b 09bd 6122 493c d4f9 1e3d 569d 83bc
0.04029658 0.047126442 0.033327755 0.052295726 0.00093526626 0.014278572 0.048998956 0.06488528
-0.026369816 -0.022216972 -0.01836073 -0.036145013 0.00014531068 0.0038984981 -0.050056357 -0.002341143
-0.037982073 0.017019223 0.046096686 -0.0052670073 -0.09440458 0.00086174486 -0.02672521 0.05006111
-0.0022209014 0.022318557 0.04062328 0.055029858 0.013516356 -0.043318953 -0.0025748883 -0.03558431
-0.0020612197 0.012031733 -0.021399071 -0.0417988 0.0033154443 -0.03256217 0.04518856 0.028505677
-0.051017597 0.029662142 0.008128559 -0.0560782 -0.117472835 0.013302173 0.02256232 -0.018090783
0.022126343 0.0055190623 -0.030958265 -0.03923079 -0.030924838 0.014335093 0.007799856 0.036833785
0.032637913 -0.0066837748 0.010772751 0.020293063 -0.0032037513 -0.022582563 -0.024613054 -0.03805813
-0.044257276 -0.051811654 0.035599343 0.099519804 -0.040761683 -0.012312305 0.02890541 -0.031187594
-0.022987215 -0.020625137 0.0073186345 -0.038578913 0.034773488 -0.04745149 0.019826256 0.009353357
-0.025668325 0.055683255 0.03731442 -0.02128062 -0.0058136987 -0.027637888 0.022300314 -0.026140861
0.019239781 0.015495807 0.0023182447 -0.043980587 -0.050826825 -0.0133465035 -0.011072347 -0.028156804
-0.048328962 0.0204515 0.021292742 -0.022251233 0.01793781 0.005105301 -0.025303192 -0.045537163
0.02686939 -0.029199105 0.0038202463 -0.050822947 0.026588181 -0.032589633 -0.036551148 0.0035995243
-0.009697434 0.020125559 0.02712945 -0.021883503 0.06008239 0.017403532 -0.012126337 0.007903515
0.0043488448 -0.03314127 -0.01628061 0.014030901 0.025111018 -0.01331305 0.08076048 0.027668996
0.04664338 -0.009792946 -0.027454248 -0.03513631 0.006811829 -0.03296274 -0.027930075 0.04268001
-0.035686463 -0.014455033 -0.004610473 -0.005909688 -0.014009925 -0.0073839696 0.020198155 0.027688673
0.030981502 -0.033764295 0.054978672 0.0020841674 0.012026573 -0.017605124 -0.0005661896 0.0098779285
-0.0009710062 0.01893629 0.0022690392 0.043705378 -0.03908861 -0.031422768 -0.05805794 0.00063556223
0.006158511 0.03014619 0.037989914 0.016437232 0.009447748 0.036996555 -0.04987995 0.073416315
-0.020565057 0.018904895 0.034980927 0.00206554 -0.007863088 0.06051364 -0.012713971 -0.03472448
-0.0023633293 -0.050949316 -0.032637954 -0.05104627 -0.041785978 0.015015202 -0.061308075 -0.03023547
-0.01584365 -0.023651745 -0.050148726 -0.048758645 0.030768164 -0.038169153 -0.0018513156 0.035202242
-0.021965073 0.071203716 -0.06843267 0.0105464095 -0.005793776 0.021805303 -0.02900663 -0.016545752
-0.019249365 -0.039519854 0.029847797 0.0060617616 0.006850348 -0.035063658 0.028898418 -0.056007866
0.05984666 -0.01024219 0.033910155 0.0057623116 0.012835804 0.050850153 0.050713845 -0.03874031
0.02282657 0.046900075 -0.002650877 0.008314686 -0.034308065 0.02263579 0.01872826 -0.025644269
-0.023787085 -0.021527508 -0.062482752 0.029970363 -0.053757522 0.043673843 -0.055920903 0.01912325
0.003728018 0.032963816 0.011653644 -0.011848409 0.04369899 -0.07649137 -0.04912791 0.04073197
-0.0013105788 -0.0427042 0.065622404 0.0027367969 0.070843875 -0.034960087 -0.06341626 0.036751904
-0.019995956 0.021625182 0.010946769 0.044876724 -0.033504087 0.012276263 0.038812473 -0.016066235

encoder.encoder.4.bias f4 [32]
00000000: 50e9 2d3d 2e80 2a3d 1b03 aa3c 7637 eebb
00000010: 5b9c ffbc 483c a93c 78d3 72bd f32f 5b3d
00000020: 8088 913c 8de0 a7bb 2ff6 26bd a381 563c
00000030: 36ee 4a3d a4ba d9bc 0291 e0bc a7e8 41bd
00000040: b6fd a1bc 0e1e 0abc 9e1a 2e3d 28a9 f8bb
00000050: d979 d33c 248f 5d3c ea24 043c 96dc 44bd
00000060: a429 ccbd 6023 063d 9e72 06be 7928 17bd
00000070: c919 c0bd a779 f53a e075 01be e2e6 2b3c
0.042458832 0.041626148 0.020753434 -0.007269795 -0.031202486 0.020658627 -0.059283704 0.053512525
0.017765284 -0.005123204 -0.040762123 0.013092431 0.049543582 -0.026578255 -0.027412895 -0.047341015
-0.0197743 -0.008430017 0.042505853 -0.0075885244 0.025814937 0.013522897 0.008065442 -0.04806193
-0.0996888 0.03274858 -0.1312966 -0.036903832 -0.09379918 0.0018728272 -0.12642622 0.0104920585

decoder.decoder.0.weight f4 [256, 16]
00000000: 3fb9 b73d abf9 d3bc 8c96 313d 89fd 923d
00000010: 34d2 fdbd 54bd 3bbe f54c 4f3e dc88 6bbe
00000020: 2a23 123d 8eaa 403e 4ed8 f4bd ea6c cebd
00000030: fd65 a23e 5632 5fbe aef1 813d c07c 0b3e
00000040: 9ac8 cdbd 9cb6 b5bd a3b1 503e 71e2 71be
00000050: db55 30bd 7dcb 36be d496 34be c83c 7b3e
00000060: 3a0f 1a39 025f 8e3d d15b 8dbe 9205 373e
00000070: ee41 f73c e13f 0c3e 047b 7f3e 0ec4 153e
00000080: 9d34 ce3d dc58 dd3d 9fda 2abd 1cab 263e
00000090: a0b2 3c3e c98f 173e 230f dc3c 6745 23be
000000a0: 830f 38be 88e9 b5bc 3925 14bd 408e 193d
000000b0: 526f 58bd 5b05 8f3d 90ef 09bd 5a31 dabd
000000c0: 2901 99bd 8f81 c23d a6e3 1ebe 11fe f83d
000000d0: 90a3 07be 8de7 1f3e 9c95 bfbd 8d91 e13d
000000e0: 992d 1abd dbc2 41bc a1b4 643e a74a d1bd
000000f0: 964d ab3d b1a0 c63d beb8 afbe beb5 48bc
00000100: ca33 4ebe 1717 eabd d053 e2bd 1e00 cebc
00000110: f51d 1abe cd86 473e 44b7 e13d 479f 96bd
00000120: 27cc 543c 8c16 72bd c86b 0a3e b710 0dbd
00000130: ca98 f13d 2739 19be 4c48 3bbe eac1 453c
00000140: 5810 bc3d f34d 973d 2b2a 013e 3021 1f3e
00000150: 1b20 67bd 1489 063e a1f9 22be e0cb 443e
00000160: 84a2 553e d922 90bd 3351 68be 58df 793d
00000170: 20a4 13bd 6d35 c83d 7c47 c3bd 8db9 533e
00000180: 166e b93d 07ca f73d 98fa 94ba 6913 1d3c
00000190: 58df 003b 7ace b0bd 99e7 633e 8caf d43d
000001a0: 02c4 64be b69c f13c 2818 b33e ef7a 7dbe
000001b0: 8871 033e 6083 4c3d cf60 d4be ade4 f3bd
000001c0: ebef 04be 135f 1e3e 21a0 58be 43c0 d2bc
000001d0: b5ee 05be 65d6 e1bd 7697 053e 01a6 22be
000001e0: cb5a 0b3e 2ff8 59bc 6395 bcbe 692f 2a3d
000001f0: 1e01 b43d cf68 5cbc 0f09 843e 40d9 05be
00000200: 0a05 e9ba 5fc0 3fbe a874 ed3d 3361 f3bd
00000210: f3bf 4cbe cf7c e03d 2cc8 57bc 85d4 fe3d
00000220: 05d7 553e 2b5b 793c 7aed e73e 3ade 073e
00000230: 0e97 7d3e b597 efbc a1b4 13bd d238 493d
00000240: fde5 29be 4cf7 04bc c5bc 5a3e f22f ec3a
00000250: 3056 453e 8c8a 743e 2907 59bd 454a 603d
00000260: 5286 913d c059 0bbd 3ec9 823e eb8b eebd
00000270: 986d 12be a80b 303e e581 3b3e caa1 4dbe
00000280: 073a 99bd 8db0 0cbe bbca a73d 3521 b93b
00000290: 4f43 9dbd d7e4 75bd 5c51 bdbc 9e4b 62bd
000002a0: 8426 02be 5dca 63bc 27fa 283e ead1 6cbd
000002b0: 6c5a b2be ab5f 873d c1e5 d53e f4cd a8bd
000002c0: 74b8 183e 32fb 8c3d 34a7 2f3d fe2a 8dbc
000002d0: 277d f43d 5e16 d5bb 05dd e4bd aac8 a7bd
000002e0: bd09 1abe f8f2 fb3d f09d 1e3e af66 b33d
000002f0: 566e 9ebe 08f5 e03d c267 a5be 4b4a d8bd
00000300: 3947 f3bd f813 023e e027 053c b50f 8cbd
00000310: 4066 f2bc ff37 b13b 4b16 113e 7197 043e
00000320: a0b1 84be b448 3d3d 673f d5be cc77 dcbd
00000330: 12a9 7dbe 91ae 343a 48e8 7f3e 6add 733d
00000340: 746e 39bd d76c cbbd 9323 3a3c c78e 4fbe
00000350: 35b4 e33d fd7a 0d3e d9cc 91bc 3e23 a93c
00000360: 82b2 33be 3b60 4e3d 6a3b e83e 4d16 c73d
00000370: 8978 1f3e 27cb 21be c5ee 88bc edac d4bd
00000380: 8ff1 0c3e 2879 d5bd 9b68 a63d 4ac5 a73d
00000390: b89c 63be fbf7 ac3d f24c 8f3d 365a 92bd
000003a0: 3e4e b1be 7fc1 f43d 0802 b73d 8a0b fe3b
000003b0: 42fc febb cc34 efbc 4116 88be 40e8 5cbd
000003c0: e135 ebbd ecaa a7bd 3722 05be decd 9c3d
000003d0: c192 cbbd 8a87 99bd 9754 1dbe cc37 aabd
000003e0: 0c25 0e3d 473f 1dbe 5273 8abe 187a 30be
000003f0: d53a cb3e e526 e5bc 55bd 823e dc16 2b3e
0.0897088 -0.025875887 0.043356463 0.07177264 -0.12393609 -0.18333942 0.202442 -0.23001426
0.035678066 0.18815061 -0.11955319 -0.100793675 0.31718436 -0.21796545 0.06344925 0.13621807
-0.10048027 -0.088727206 0.20380263 -0.23621537 -0.04305063 -0.17851062 -0.17635661 0.24534905
0.00014692257 0.06951715 -0.27609113 0.17873219 0.030182805 0.13696243 0.2494927 0.1462557
0.10068629 0.10807964 -0.0417124 0.1627621 0.18427515 0.14800943 0.026862686 -0.15944444
-0.17974667 -0.022206083 -0.03616831 0.037489176 -0.05284054 0.06983443 -0.03367573 -0.10653944
-0.074709244 0.094973676 -0.15516528 0.12157834 -0.13245988 0.15615673 -0.093547076 0.1101409
-0.03764114 -0.011826242 0.2233453 -0.10219317 0.08364408 0.09698618 -0.34320635 -0.012250362
-0.20136943 -0.11430185 -0.11051142 -0.02514654 -0.1505049 0.19485016 0.11021283 -0.073545985
0.012988127 -0.059103534 0.13517678 -0.03443977 0.1179672 -0.14963208 -0.18289298 0.0120701585
0.09182805 0.073879145 0.12613742 0.15540004 -0.056427103 0.13138229 -0.15915538 0.19218397
0.20862776 -0.07037897 -0.22687225 0.061004013 -0.036045194 0.09775815 -0.09535119 0.20676251
0.090542 0.120990805 -0.0011366187 0.009587147 0.0019664373 -0.08633132 0.22256316 0.103850454
-0.22340396 0.02949367 0.34979367 -0.24753927 0.12836277 0.049929976 -0.4148011 -0.11908851
-0.12982146 0.15465955 -0.21154834 -0.025726443 -0.13079341 -0.11027221 0.13046059 -0.15883638
0.13608854 -0.0133038005 -0.36832723 0.04154912 0.087892756 -0.013452723 0.2578816 -0.13071156
-0.0017777991 -0.18725727 0.11594516 -0.11883774 -0.19995098 0.10961305 -0.013170283 0.12442879
0.20882805 0.01521949 0.45298368 0.13268366 0.24764654 -0.029247144 -0.036060933 0.049126454
-0.1659164 -0.008115601 0.21361072 0.001801966 0.19271159 0.23880976 -0.052985344 0.05475833
0.07105698 -0.03402114 0.2554416 -0.11647781 -0.14299619 0.17191947 0.1831127 -0.20081249
-0.07481771 -0.13739224 0.08192965 0.0056497105 -0.07678854 -0.06003269 -0.023110084 -0.055247895
-0.12710005 -0.013903228 0.16501676 -0.057817377 -0.3483461 0.06610044 0.4177685 -0.082424074
0.14914113 0.06883849 0.042884067 -0.017232414 0.119379334 -0.0065029105 -0.11174969 -0.081925705
-0.15042777 0.12302202 0.15489936 0.0875982 -0.30943555 0.10984236 -0.32305723 -0.10561045
-0.11878819 0.1270293 0.008127183 -0.068389334 -0.029589772 0.0054082866 0.1416866 0.12948395
-0.25916767 0.046211913 -0.41649935 -0.10765037 -0.24771526 0.00068924675 0.24990952 0.05953733
-0.045271352 -0.09932869 0.011361021 -0.20269309 0.11118356 0.13816448 -0.017797874 0.020646688
-0.17548564 0.05038474 0.4535783 0.097210504 0.15573324 -0.15800153 -0.016715417 -0.103845455
0.13764022 -0.10423499 0.08125421 0.08191927 -0.22227752 0.08445736 0.06997098 -0.071461126
-0.34630007 0.11950969 0.08935934 0.0077528404 -0.0077815363 -0.02919998 -0.26579478 -0.05393243
-0.11484886 -0.08186898 -0.13001333 0.076564535 -0.099401005 -0.07496555 -0.153643 -0.08311424
0.0347033 -0.1535617 -0.27041107 -0.17234075 0.39693323 -0.027972648 0.25535074 0.16707939

decoder.decoder.0.bias f4 [256]
00000000: f105 073e 0f0c 3dbe 383e d23e 643a eb3d
00000010: abd1 01be cc92 0dbe 0b8e 193d 1f56 9c3e
00000020: 0586 d03e 9f7e 443d 1a10 0fbd 1fdf 423e
00000030: cd66 ac3e 9510 943e 80b8 9f3d 6c30 3bbe
00000040: e5e6 573e 1d97 08bc 2522 19be 4a80 ae3d
00000050: 1764 e83c adec a9bd 6d5a aa3e d634 d43e
00000060: 50f1 b93d f1fa c43e bd85 1fbe b400 603e
00000070: 7d1a 96bd b9b4 3dbe a828 a83e 899a b53e
00000080: adc3 6a3d 7964 bd3e fbbe d93d ea69 143d
00000090: 334d ad3d ff90 d13e 9ce0 993e f9b5 8b3e
000000a0: c5a2 e9bc fdcd 92bd 119f 23be 673d e23d
000000b0: 3ec4 d03e e0a7 253e ede7 13be 7f71 da3e
000000c0: 8fd7 df3e e6b3 e8bd 0e82 78bd b60e 883e
000000d0: 0c5c c1bd 4716 c43d a48f d0bb 8c6b 863e
000000e0: 525c 0dbe f3c4 f7bd 97bd 643c 45e9 143e
000000f0: 06b9 0c3c f8ca be3e 783f 3bbe 797c 1b3e
00000100: 095a a93e 20c3 7bbe 663e dabd ecaa 5bbe
00000110: 98ed 1fbd d4db d13d b1ad ab3e 9211 1f3d
00000120: 8707 d03e 99fa ca3d ba4b 3a3e dda6 5bbe
00000130: 95cc b83e e317 723e 0816 a43d fb2f 54be
00000140: 3703 53bc 3eb9 1cbe ef02 be3e b874 4cbe
00000150: 57d0 4c3d 1861 b4bb 5343 5bbe 1c2f 5bbe
00000160: 7965 f23d 6fc3 7c3e fe8b ca3e e819 bfbd
00000170: bd66 0cbe b592 a2bd 22f5 4bbe 8081 afbd
00000180: 944c 04bb f082 36be adae e23e af8d 173e
00000190: d371 7abd 760f 99bd 9619 483e ab43 85be
000001a0: 0629 503d b007 943e 0948 0b3e 1be8 643e
000001b0: 826c f43e 2162 dc3e 1bce c83d 8c57 b63e
000001c0: ebd7 07bd fbb6 ea3d bc9f 6ebc 12eb c3bc
000001d0: 4411 203e 70ee b83e f674 443e 27f5 31be
000001e0: 6619 fdbd 3d87 653e ee3f 41be 733a 36bc
000001f0: 8341 1abe 6105 d03e 3c74 c23e 11bd fb3d
00000200: 56c2 32be a3a3 a73e c2db ad3d 4128 2ebd
00000210: f99b abbd 483b 4fbc d06a 803e b17f cdbd
00000220: c8ae d53e 4b6e 783e d1f5 23be d7de c03e
00000230: a120 5b3d 60c0 0a3e d90f 3dbe 0df2 833e
00000240: 709d bc3e 235b 533e 78ca d43e 31ed 02bd
00000250: 205c c13e e095 0abe 85db ee3e 4eab 9c3e
00000260: 98ce 8a3e 03e0 193d 2976 8e3e a706 27bd
00000270: e338 923e 2cce 8b3d 3542 df3e e989 d93e
00000280: c00e a23e 653b 2a3e 474a c53d 93fe 33bd
00000290: 4259 8dbd d488 b93e 6c87 3bbe bf79 a63e
000002a0: 3e0f 383e 0004 983e ef47 b03d 1089 c53e
000002b0: 1f3a e73d aad3 723e aef0 b53e 7d6c b1bd
000002c0: c18d e33d 5eb2 823e 22b9 f13d 6f82 3f3e
000002d0: 06ee 5dbd d277 893d 325b a53e 8081 c8bd
000002e0: 776c 3fbc 0061 fb3e e966 023e 95bb c33e
000002f0: b3a3 f83d 68c4 ae3e 53a7 58be 96b6 313c
00000300: 53e9 33be 7887 4f3e 0040 d93e 839b 2c3e
00000310: 9e66 48bc e8bc 123e 5839 e53d 052e 48be
00000320: 6cd4 803a 7365 993d 4095 843e 8cdd 293d
00000330: 4698 8e3d 59fd 26be 91e1 d63d f0f0 b8bc
00000340: e055 e93d b4ef 9c3d 9685 a73d 0e5f 093d
00000350: a3ed 83bd 31f2 e53d 99d5 2bbe da5e e83d
00000360: d340 92bd cf63 44be e5b9 ae3e f504 01be
00000370: b10c e13d 5f4d 823e da93 dabd ea58 ae3e
00000380: beee eabc fc11 a7bd af5a 20be 38c8 a33e
00000390: bafb ea3e 55dd 62be b705 603d bd0c 983e
000003a0: 77cd 8abd 5179 12bd 5546 563e 0162 f2bd
000003b0: 5f8a 943d 63a9 943d 6bf4 af3e fcce 0a3e
000003c0: 8fbe d0bd fc65 cd3e a5e6 2ab9 b218 1a3e
000003d0: f3b8 203d c5bf 62bc 7865 173d 7acd 093d
000003e0: 6542 36bc cef4 ef3d 9579 1abe ad90 123e
000003f0: 008a 03be 5e4e 53be 1964 85bd 25ef 4d3e
0.1318586 -0.18461631 0.41063094 0.114857465 -0.12677638 -0.1382553 0.03748898 0.30534455
0.4072725 0.047972318 -0.034927465 0.19030426 0.3367218 0.289189 0.077988625 -0.1828019
0.21084173 -0.008336809 -0.14954431 0.08520563 0.028368039 -0.082970954 0.33272114 0.4144656
0.0907923 0.38472703 -0.15578361 0.21875268 -0.07329271 -0.18525971 0.32843518 0.35469463
0.057315517 0.36990717 0.1063213 0.03623382 0.0846199 0.40930936 0.30054176 0.27287272
-0.028519997 -0.071681954 -0.15978648 0.11046868 0.4077472 0.1617732 -0.14443941 0.42664716
0.43719146 -0.11362438 -0.060670905 0.26573724 -0.09441385 0.095745616 -0.0063647795 0.26253927
-0.13804749 -0.12098112 0.013961217 0.1454211 0.008589035 0.37264228 -0.1828593 0.15184201
0.33076504 -0.24586153 -0.10656433 -0.2145192 -0.039044946 0.10247007 0.33530954 0.038835116
0.40630743 0.09911079 0.1819295 -0.21450372 0.36093584 0.23641925 0.080120146 -0.20721428
-0.012879184 -0.1530504 0.37111613 -0.199664 0.050003376 -0.0055047385 -0.21412401 -0.2140469
0.118357606 0.24683927 0.3955993 -0.09331113 -0.13711067 -0.079381384 -0.1991773 -0.08569622
-0.0020187246 -0.17823386 0.44273892 0.14800142 -0.061143707 -0.07473652 0.1954101 -0.2602819
0.050820373 0.28912115 0.13601698 0.22354166 0.47739035 0.43043616 0.098049365 0.35613668
-0.0331649 0.11460682 -0.014564451 -0.023915801 0.15631586 0.36119413 0.19185242 -0.17378674
-0.1235836 0.2241487 -0.18872043 -0.011122334 -0.15064053 0.40629104 0.37979305 0.12291921
-0.17456946 0.32742032 0.08489181 -0.042518858 -0.08379359 -0.012648411 0.2508149 -0.10034121
0.4173491 0.24260823 -0.1601174 0.37670013 0.053497914 0.13549948 -0.18463077 0.25770608
0.36838865 0.20640235 0.4156072 -0.031964485 0.37765598 -0.13533735 0.46651855 0.30599445
0.27110744 0.03756715 0.27824524 -0.04077783 0.28559026 0.068264335 0.436052 0.4248803
0.31651878 0.1662422 0.09633308 -0.043943953 -0.0690179 0.36237204 -0.18313378 0.3251476
0.17974564 0.29690552 0.0860747 0.38581133 0.112903826 0.23713556 0.35535187 -0.086632706
0.11111022 0.25526708 0.118028894 0.187021 -0.054182075 0.06712307 0.3229614 -0.09790325
-0.011683575 0.49097443 0.1273457 0.3822905 0.12140598 0.3413422 -0.21157579 0.010846755
-0.17569475 0.20266521 0.4243164 0.16856198 -0.012231497 0.14329875 0.11192578 -0.19548805
0.0009828932 0.07490053 0.2589512 0.04147105 0.069626376 -0.16307582 0.10492242 -0.022575825
0.113933325 0.07662907 0.08179776 0.033537917 -0.0644181 0.11227835 -0.167807 0.113462165
-0.071412705 -0.19178699 0.341262 -0.12599547 0.10988749 0.25449654 -0.10672732 0.3405221
-0.028678294 -0.08157727 -0.15659593 0.31988692 0.45895177 -0.22154744 0.05469295 0.2969722
-0.067774706 -0.035760228 0.20925267 -0.11835099 0.07252955 0.072588705 0.34366164 0.13555521
-0.10192596 0.4011687 -0.00016298385 0.15048483 0.03923888 -0.013839667 0.036962003 0.033643223
-0.011124228 0.11716615 -0.15085442 0.14313002 -0.12845612 -0.20635363 -0.06513233 0.20110758
